champ_predictor.pt (torch, 314698 bytes, 10 tensors)

embedding.weight f4 [1000, 32]
0	0xbe366b63	-0.17814402
1	0xbf56df94	-0.83934903
2	0xbf8a4eb5	-1.080527
3	0x3f4a7d1a	0.7909714
4	0xbfc5cd9f	-1.5453376
5	0xbe975319	-0.29555586
6	0x3de66998	0.11250609
7	0xbfbef739	-1.4919196
8	0x3e33324c	0.17499655
9	0x3d66b1d7	0.056321945
10	0xbf102d89	-0.5631948
11	0x3f231259	0.6369987
12	0x3f4ef744	0.8084605
13	0x3f1e950c	0.6194618
14	0xbfc4c5ab	-1.5372823
15	0xbf76f14a	-0.9646193
16	0xbe9127f9	-0.2835081
17	0x3f0f97b8	0.5609088
18	0xbe9ab608	-0.30217004
19	0x3f386177	0.7202372
20	0x3f927ee5	1.1444975
21	0xc003a66e	-2.057033
22	0xbe53011c	-0.20605892
23	0xbf95a08e	-1.1689622
24	0x3f476690	0.7789087
25	0x3eb1e278	0.34743094
26	0x3ef02664	0.4690429
27	0x3e7f1c45	0.24913128
28	0xbf00e1ea	-0.5034472
29	0x3fb62473	1.4229873
30	0x3d60ae00	0.05485344
31	0xbf1542a3	-0.58304805
32	0xbf5883cd	-0.8457611
33	0xbedd2830	-0.43194723
34	0xbf6daf75	-0.9284585
35	0xbf11e4af	-0.5698957
36	0x3f0c2684	0.5474627
37	0xbf93d506	-1.1549385
38	0xbf22101c	-0.6330583
39	0x3fbfbfac	1.4980369
40	0xbe3bb974	-0.18332464
41	0x3df2b16b	0.11850246
42	0xbd5e6cd3	-0.054303
43	0x3f75790d	0.95887834
44	0x3f629abe	0.8851737
45	0xbfba378b	-1.45482
46	0x3efc5cd8	0.49289584
47	0x3f10a378	0.56499434
48	0x3f99c36d	1.2012764
49	0xbf1f471c	-0.6221788
50	0xbf408be0	-0.7521343
51	0xbeeab13e	-0.4583835
52	0x3e8bbe45	0.27293602
53	0xc026018c	-2.5938444
54	0x3e15f8ad	0.14645644
55	0xbf20b189	-0.627709
56	0xc02f215c	-2.736411
57	0xbeadb7b3	-0.33929214
58	0xbf602001	-0.87548834
59	0xbf555702	-0.8333589
60	0xbfc1fad9	-1.5154678
61	0xbfe923f6	-1.82141
62	0x3ec7403c	0.38916194
63	0xbf90331a	-1.1265595
64	0xbe889ea8	-0.26683545
65	0x3f06290e	0.52406394
66	0x3f059490	0.52179813
67	0x3e7cff71	0.24706818
68	0x3fc1921b	1.5122713
69	0x3ebe6755	0.3718821
70	0x3ec8e8b2	0.39240032
71	0x3d0f93be	0.035053007
72	0x3f0a241b	0.5396134
73	0x3f433e4b	0.76266927
74	0x3fe40637	1.7814397
75	0xbf3afaac	-0.73038745
76	0x3eae9c41	0.34103587
77	0xbfcdd15b	-1.6079515
78	0xbebe8de0	-0.37217617
79	0x3f7af84a	0.9803511
80	0xbe2a5cec	-0.1663701
81	0x3f936b9a	1.1517212
82	0x3e8d0fa4	0.27550995
83	0xbf6d36ab	-0.9266154
84	0x3da1dd5d	0.0790355
85	0xbe69ae75	-0.22820456
86	0xbf957ad4	-1.1678109
87	0xbfe4fc70	-1.7889538
88	0xbf0baaef	-0.545577
89	0xbf871a7c	-1.0554957
90	0xbfb2b126	-1.3960311
91	0x3f27c01b	0.65527505
92	0x3f0c6f12	0.5485698
93	0xbf888700	-1.0666199
94	0x3dc8058a	0.097666815
95	0x3f1cd029	0.6125513
96	0x3fa2f4a8	1.2730913
97	0x3c76c9c8	0.015062757
98	0xbc7bfb5c	-0.015379753
99	0x3fd70883	1.6799473
100	0xbf38bdb0	-0.7216444
101	0x3f05a0cf	0.521985
102	0x3ea1a75e	0.31573004
103	0xbdeda987	-0.116046004
104	0x40271537	2.6106699
105	0x3f55373f	0.83287424
106	0x3f99cfd5	1.201655
107	0x3f874ec2	1.057091
108	0xbeddf65a	-0.43352014
109	0xbea6c75c	-0.32573974
110	0x3ea875b8	0.32902312
111	0xbedc3f04	-0.43016827
112	0xc0088873	-2.1333282
113	0x3eb0ad28	0.34507108
114	0xbf31ea83	-0.6949846
115	0x401ad823	2.419442
116	0xbeac95e6	-0.33708113
117	0xbd301cff	-0.042996403
118	0xbf0ca0a7	-0.54932636
119	0xbfcad395	-1.584582
120	0xc009c3c7	-2.1525743
121	0xbfa7a820	-1.3098183
122	0xbf9f48fd	-1.2444149
123	0x3f385eb0	0.7201948
124	0x3fd76e24	1.6830487
125	0x3f485ac3	0.7826349
126	0x3f8aff95	1.0859247
127	0x3e30516e	0.17218563
128	0xbf0b76cd	-0.5447815
129	0xbfa2d2a6	-1.2720535
130	0x3e405b59	0.18784846
131	0xbf8feaae	-1.1243494
132	0xbe334fc8	-0.17510903
133	0x3f39612e	0.7241391
134	0x3e95de96	0.29271382
135	0x3f9a27e7	1.2043427
136	0x3e8b3c8c	0.2719463
137	0x3f7b9bed	0.982848
138	0xbfd7a7bf	-1.6848067
139	0xbfb8bd20	-1.4432716
140	0xbea3c851	-0.31988767
141	0xbe722133	-0.23645477
142	0xbf84ee5d	-1.0385243
143	0xbfae0ac9	-1.3597041
144	0x3f8e502f	1.111822
145	0xbf2b4e3f	-0.6691627
146	0x3fce0c6e	1.6097543
147	0x3e816718	0.25273967
148	0xbf6c8366	-0.92388
149	0x3f8c2770	1.0949535
150	0x40041345	2.063676
151	0x3e7bc57f	0.24587058
152	0xbf8d3fbf	-1.1035079
153	0x3f72bc10	0.9481821
154	0x3fc6a260	1.5518303
155	0xbcd0be0e	-0.02548125
156	0x3ef67693	0.4813734
157	0x3f695fc7	0.9116177
158	0x3de1a5db	0.110179625
159	0x3fb6d755	1.4284464
160	0xbfb7141c	-1.4303012
161	0xbe0e0cc1	-0.13872053
162	0x3fbd40ba	1.4785378
163	0x3fb64c8d	1.4242111
164	0xbdca2d3b	-0.09871908
165	0x3d196dff	0.037458416
166	0xbfa01239	-1.2505561
167	0x3f6e7e25	0.9316123
168	0xbf2a6fe3	-0.66576976
169	0xbd95baac	-0.073109955
170	0x3fabdc88	1.3426676
171	0x3effab30	0.49935293
172	0x3f863f94	1.0488153
173	0x3dd4b2eb	0.103856884
174	0xbf670fc8	-0.90258455
175	0x3f95fd59	1.171794
176	0xbe34e2be	-0.1766462
177	0xbf31ad0e	-0.69404685
178	0xbec3c189	-0.38233593
179	0xbef8c60c	-0.48588598
180	0xbe18e693	-0.14931707
181	0xbf548ec8	-0.83030367
182	0xbf6741e6	-0.9033493
183	0xbda635e7	-0.0811575
184	0xbe5f757a	-0.21822158
185	0x3ef0438c	0.46926534
186	0xbc939049	-0.018013136
187	0xbf1d800c	-0.6152351
188	0xbf4a025c	-0.7890985
189	0xbfca462f	-1.5802668
190	0x3e007442	0.12544349
191	0x3e8750eb	0.26428923
192	0xbf4862d8	-0.78275824
193	0x3eb73687	0.3578379
194	0xbf7fc387	-0.99907726
195	0xbf58a561	-0.8462735
196	0xbfde1a75	-1.7351824
197	0xbfcc2c94	-1.5951104
198	0x3ec2cd29	0.3804715
199	0x3f5581af	0.83401006
200	0x3f6a88e5	0.91615134
201	0x3e8d3479	0.27579096
202	0x3e951a27	0.29121515
203	0xbf31d5a3	-0.6946661
204	0xbf72ff6f	-0.9492101
205	0xbe35295d	-0.1769156
206	0x3ee902f2	0.4551006
207	0xbef411fd	-0.47669974
208	0x3f922a1a	1.1419098
209	0x3f0cb286	0.54959905
210	0x3e9bc318	0.30422282
211	0x3f677d77	0.9042582
212	0x3f0ba29c	0.54545
213	0xbf956c58	-1.1673689
214	0x3f56d2ea	0.8391558
215	0x3f989c0d	1.1922623
216	0xbe1148f7	-0.1418799
217	0xbfdd35a9	-1.7282001
218	0xbf19b575	-0.60042506
219	0xbe2980b5	-0.16553004
220	0x3ebfbaf0	0.3744731
221	0xbf95f089	-1.171403
222	0xbfe15a79	-1.7605735
223	0x3f8c68ec	1.096952
224	0x3fd32304	1.6495061
225	0xbf11d24b	-0.56961507
226	0xbf90b95c	-1.1306567
227	0x3ea7d588	0.327801
228	0xbf9383c5	-1.1524588
229	0x3f9483d4	1.1602731
230	0x3ef3c425	0.47610584
231	0x3e4454c5	0.19172962
232	0xbf5a2d5e	-0.85225475
233	0xbf6d81cd	-0.92776185
234	0x3f6fe617	0.93710464
235	0xbe1e0e64	-0.15435177
236	0xbd07b495	-0.0331312
237	0x3f805f6f	1.0029124
238	0xbf3211b8	-0.69558287
239	0xc00ad7bc	-2.1694174
240	0xc0243fd9	-2.566397
241	0x3e44fc7f	0.19236945
242	0xbefefb7c	-0.49801242
243	0xbffd1fbf	-1.9775313
244	0xbf766bba	-0.9625813
245	0xbec0184c	-0.37518537
246	0xbf8d1cc7	-1.1024407
247	0x3e60e8e7	0.21963845
248	0x3e289cf7	0.16466127
249	0x3f0d3f52	0.55174744
250	0xbf979ced	-1.1844765
251	0x3fd58be7	1.668332
252	0x3fc941cb	1.5723203
253	0xbf43845d	-0.76373845
254	0x3dcd243a	0.10016675
255	0xbf96113d	-1.1724011

attn.in_proj_weight f4 [96, 32]
0	0xbe3ea374	-0.1861704
1	0xbe347cd3	-0.17625742
2	0x3e6271c8	0.22113717
3	0x3d22e4b1	0.03976888
4	0x3dbfdee6	0.093686864
5	0xbe85dc14	-0.2614447
6	0xbe33c717	-0.17556415
7	0x3b813607	0.003943208
8	0x3d2e9b6e	0.042628698
9	0xbdc48a20	-0.09596658
10	0x3e392820	0.18081713
11	0x3d75ef38	0.06004259
12	0xbe82bb7d	-0.25533667
13	0x3e0ecb4c	0.13944739
14	0x3e09654e	0.13417551
15	0x3dc0538b	0.093909346
16	0x3d23424e	0.039858155
17	0xbcee34a8	-0.029077843
18	0xbb12ebd2	-0.0022418392
19	0xbe272119	-0.1632122
20	0xbe01b167	-0.1266533
21	0x3cd300c7	0.025757207
22	0xbd22cea3	-0.039747845
23	0xbc903578	-0.01760362
24	0x3dc753d5	0.097327866
25	0xbb992b08	-0.004674319
26	0x3c95574a	0.0182301
27	0x3ea94d82	0.33066946
28	0xbe7d0477	-0.24708734
29	0xbc85b619	-0.016322182
30	0x3c82e51f	0.015978394
31	0xbe153f52	-0.14574936
32	0xbb561fcf	-0.0032672768
33	0x3de90d9d	0.1137955
34	0xbd8be62e	-0.06831013
35	0xbe62705d	-0.22113176
36	0x3d88d0e9	0.066804715
37	0xbe4028a2	-0.187655
38	0x3df613b3	0.12015476
39	0xbd45df5b	-0.04830871
40	0xbdf88a03	-0.12135699
41	0xbe1b8b65	-0.15189894
42	0x3e47d6fe	0.19515607
43	0x3d8a52e5	0.06754092
44	0x3d6d62de	0.057955615
45	0x3d7fce97	0.06245288
46	0xbdab95fd	-0.08378217
47	0x3e144e30	0.14482951
48	0x3d42a7fd	0.047523487
49	0xbe1d9421	-0.15388538
50	0xbe16a3d4	-0.14710933
51	0x3e213400	0.15742493
52	0xbae409be	-0.0017397923
53	0xbe35ec5c	-0.17765945
54	0xbd87bfa0	-0.066283464
55	0x3e54b7a5	0.2077318
56	0xbe33cd80	-0.17558861
57	0xbda79513	-0.081827305
58	0xbcf73448	-0.030176297
59	0xbd5947dd	-0.05304705
60	0x3e15f05b	0.1464247
61	0xbdd8d58e	-0.10587607
62	0x3d0c372a	0.034232296
63	0x3dc7c327	0.09754019
64	0xbe4b7b09	-0.19871153
65	0xbe017a80	-0.12644386
66	0x3ddc0566	0.10743217
67	0xbe12ad23	-0.14323859
68	0xbe10713b	-0.14105694
69	0xbde9a4af	-0.11408364
70	0xbe0b64c2	-0.13612655
71	0x3debb336	0.11508791
72	0x3b22d009	0.0024843237
73	0xbd385781	-0.045005325
74	0xbd09e90d	-0.03366952
75	0xbc9d7cce	-0.01922455
76	0x3d7e7c07	0.06213
77	0xbda5fea0	-0.081052065
78	0x3cab7e19	0.020934151
79	0x3e041901	0.12900163
80	0xbdf87103	-0.1213093
81	0x3e35d1bb	0.17755787
82	0xbe4b1739	-0.19833077
83	0xbc43100e	-0.011905683
84	0xbcfc4807	-0.030796064
85	0xbe051041	-0.12994482
86	0xbc84b4bd	-0.016199464
87	0x3dfaf0b6	0.12252943
88	0xbd32a682	-0.043615825
89	0xbdd3483b	-0.10316511
90	0x3e44a792	0.19204548
91	0x3d5605bb	0.05225156
92	0x3d62dfbf	0.055389162
93	0xbbb712b7	-0.005586948
94	0xbe20e22a	-0.15711275
95	0x3e0e87c6	0.13918981
96	0xbbf5d76a	-0.007502486
97	0xbdbb2171	-0.09137238
98	0x3e81f93d	0.25385466
99	0xbc6e828a	-0.01455749
100	0xbe014b68	-0.12626421
101	0xbdc3c2a6	-0.095586106
102	0xbe90ba88	-0.28267312
103	0xbd88d4f5	-0.06681243
104	0xbe4f895b	-0.2026724
105	0xbdb32e6c	-0.08749089
106	0x3e199bf0	0.15000892
107	0x3e1ddcfe	0.15416333
108	0x3e0f71d8	0.14008272
109	0x3daac612	0.0833856
110	0x3e033eaf	0.1281688
111	0xbe1c1e2d	-0.15245886
112	0xbdcb27ed	-0.099197246
113	0xbdf3840a	-0.11890419
114	0x3c477d38	0.012175851
115	0xbdc959fe	-0.09831618
116	0x3e2c1d20	0.16807985
117	0xbcbce76c	-0.02305957
118	0x3e06f32f	0.13178705
119	0xbb6db798	-0.003627276
120	0x3d418d13	0.04725368
121	0x3d6ab00f	0.05729681
122	0xbde4fd1a	-0.11181088
123	0x3b8811f1	0.0041525294
124	0xbeaef520	-0.3417139
125	0xbe86c252	-0.2632013
126	0xbe002a6d	-0.12516184
127	0xbe132da4	-0.1437288
128	0x3e95a6f6	0.29228944
129	0xbd37b983	-0.044854652
130	0xbdccc76c	-0.09998974
131	0x3d8ce5a1	0.06879736
132	0xbdcc279d	-0.09968493
133	0xbe4e5251	-0.20148589
134	0x3e84c35a	0.2593029
135	0x3e71e148	0.23621094
136	0x3c1836ee	0.00929044
137	0x3df5217d	0.11969278
138	0xbd66616b	-0.05624525
139	0xbdd7a59a	-0.10529633
140	0x3d8215a2	0.063517824
141	0x3e7dbc2c	0.24778813
142	0xbe7ed9c2	-0.24887756
143	0xbe419d16	-0.1890758
144	0xbe66435d	-0.22486635
145	0x3c0f0516	0.00872924
146	0xbe9eb7c3	-0.30999574
147	0x3e326c58	0.17424142
148	0x3e063910	0.13107705
149	0xbe2d90ed	-0.16949816
150	0xbdd4b751	-0.10386527
151	0x3e1f3b0c	0.15549868
152	0x3e6f5183	0.23370938
153	0x3d8caa09	0.06868369
154	0x3bb586be	0.005539744
155	0x3d5ec00d	0.054382373
156	0xbcd73361	-0.026269617
157	0xbe57858c	-0.21047038
158	0x3e1ae284	0.15125471
159	0x3d892162	0.066958204
160	0xbd406245	-0.046968717
161	0x3d665770	0.05623573
162	0xbe74c12f	-0.23901819
163	0xbe1334c4	-0.14375597
164	0xbde77314	-0.11301246
165	0xbc245888	-0.010030873
166	0x3e2e9176	0.17047676
167	0xbd2ab0db	-0.04167257
168	0xbe061f2d	-0.1309783
169	0x3dfe38f2	0.12413205
170	0xbe7626b5	-0.24038203
171	0xbe6cd8e2	-0.23129609
172	0xbdbe2cc3	-0.09285881
173	0x3e04e9c6	0.12979802
174	0x3e305597	0.1722015
175	0x3db9890e	0.09059344
176	0x3c46738d	0.01211251
177	0x3e09ea30	0.13468242
178	0xbe8bf6f9	-0.27336863
179	0xbe534f2e	-0.20635673
180	0x3daec37b	0.08533379
181	0x3d3efd2a	0.046628155
182	0xbde10ced	-0.109887935
183	0xbdc989de	-0.09840749
184	0x3cd0adaa	0.025473434
185	0x3e0588ff	0.13040541
186	0xbbf9c0da	-0.0076218667
187	0xbd95419e	-0.07287906
188	0xbe281eb0	-0.16417956
189	0xbdebefd1	-0.11520351
190	0x3d9012f8	0.07034868
191	0x3da84415	0.082161106
192	0xbd920d3b	-0.0713143
193	0xbd5f0858	-0.054451317
194	0xbe9a11e0	-0.30091763
195	0x3e6ceee1	0.23138
196	0xbda23ae4	-0.07921389
197	0xbe037c71	-0.1284044
198	0x3dcd6361	0.10028721
199	0x3ca11e01	0.019667627
200	0x3e977bad	0.29586545
201	0x3e84aa5f	0.25911233
202	0xbdc77986	-0.09739976
203	0xbdd4c87c	-0.10389802
204	0x3e1cd13f	0.15314196
205	0xbd483d9a	-0.048886873
206	0xbe6c946d	-0.23103495
207	0x3e32d102	0.17462543
208	0x3d6cc414	0.057804182
209	0xbcbec1e2	-0.02328581
210	0x3c42bf6c	0.011886459
211	0xba8104e1	-0.0009843373
212	0x3cc7c65c	0.024386577
213	0x3e51f8fe	0.20505139
214	0xbd2c84ee	-0.04211896
215	0x3ddb71e3	0.107150815
216	0x3b679e08	0.0035341997
217	0x3d7afbce	0.061275296
218	0x3dedb634	0.11607018
219	0xbe703b90	-0.23460221
220	0x3e293b4d	0.16526528
221	0x3e65a5ac	0.2242648
222	0xbddb2541	-0.10700465
223	0xbcb28052	-0.021789704
224	0x3cfb1200	0.030648232
225	0x3e2ce08d	0.16882534
226	0xbe3f6f2f	-0.18694757
227	0xbe192071	-0.14953782
228	0xbd378f4e	-0.0448144
229	0xbcca6baf	-0.02470955
230	0xbd5738ce	-0.052544408
231	0xbde1ca1e	-0.11024879
232	0x3d7b28b9	0.061318133
233	0xbe1068d2	-0.14102486
234	0xbde72527	-0.11286383
235	0xbd1bbf70	-0.038024366
236	0xbdd41e78	-0.10357374
237	0x3d40ea0a	0.047098197
238	0x3c40a073	0.011757004
239	0x3be088f4	0.0068522636
240	0xbe0904f5	-0.13380797
241	0x3e2029cd	0.15640946
242	0x3d5c6764	0.05380954
243	0xbddbed73	-0.10738649
244	0xbe45a223	-0.19300131
245	0xbe0acace	-0.13553926
246	0xbe062ef5	-0.1310385
247	0x3e21bafb	0.15793984
248	0xbe598a05	-0.21244057
249	0x3e2fd307	0.17170344
250	0xbdb587f3	-0.08863821
251	0x3d4f1382	0.050555713
252	0x3e450ae8	0.19242442
253	0xbdd9de76	-0.10638134
254	0xbdf53a63	-0.11974027
255	0x3e0b7a9c	0.1362099

attn.in_proj_bias f4 [96]
0	0x3da9a3c7	0.08283191
1	0xbcfe866b	-0.031069955
2	0x3cda5128	0.026650026
3	0x3da419b9	0.08012719
4	0xbcc7dfe2	-0.024398748
5	0x3d2c2da1	0.042035703
6	0xbe3495d5	-0.17635281
7	0xbd084aef	-0.033274587
8	0x3ca9021a	0.020630885
9	0x3da2056d	0.07911191
10	0xbd15a2dc	-0.036532268
11	0x3d654239	0.055971358
12	0x3c8d47c7	0.01724614
13	0xbced0c2e	-0.028936472
14	0xbd4ce794	-0.050025538
15	0xbc91f112	-0.017815147
16	0xbd3748c2	-0.04474712
17	0x3d8790b5	0.066193976
18	0xbcbfc014	-0.02340702
19	0xbcbb0456	-0.022829216
20	0x3db788da	0.08961649
21	0x3d9e5599	0.0773117
22	0xbcb233d7	-0.021753235
23	0xbdba8cbd	-0.09108875
24	0x3dbd4cde	0.09243177
25	0xbcfb5c65	-0.030683706
26	0xbbec8790	-0.0072183087
27	0x3d8d1a08	0.06889731
28	0x3d512dc9	0.051069055
29	0xbd14d622	-0.036337025
30	0xbdef0888	-0.11671549
31	0xbc7bbdd6	-0.015365085
32	0xb9bfc06b	-0.0003657372
33	0xb70d445a	-8.420169e-06
34	0x39133f21	0.0001404253
35	0xb8ea5f51	-0.000111757436
36	0xba0858cb	-0.00052012195
37	0xb8cf282c	-9.878012e-05
38	0xb905cd4e	-0.0001276035
39	0xb91bba5d	-0.00014851378
40	0x38b9d98b	8.862008e-05
41	0x37d0642a	2.4842175e-05
42	0xba090884	-0.0005227404
43	0xb93ecd1c	-0.00018196221
44	0xba0b0cac	-0.00053043175
45	0x3a0ce068	0.00053740153
46	0xb9d4ce19	-0.00040589346
47	0x3919a8f3	0.00014654156
48	0xb8596d24	-5.1838477e-05
49	0xb9660563	-0.00021936516
50	0xb90c49b8	-0.00013378903
51	0xb8764df6	-5.8723577e-05
52	0x38b0f10d	8.437233e-05
53	0xb95013c1	-0.00019843785
54	0x39e743d1	0.0004411028
55	0xb8e0e7aa	-0.00010724303
56	0x39ef7bc4	0.00045677845
57	0xb98dec2d	-0.0002706958
58	0xba20d4b5	-0.00061352114
59	0x3a6dcebd	0.0009071639
60	0x3a17cb69	0.00057905033
61	0x39ace4fd	0.00032977006
62	0xb937206e	-0.00017464321
63	0xb91e7ea8	-0.00015115237
64	0xbc763c78	-0.015029065
65	0xbd982b58	-0.07430142
66	0xbdaab5c0	-0.08335447
67	0xbe150d6e	-0.14555904
68	0x3da68c92	0.081322804
69	0x3d44faea	0.048090853
70	0xbdeb289c	-0.11482355
71	0x3d81d891	0.06340135
72	0x3db17947	0.0866571
73	0x3c7260f8	0.014793627
74	0xbd993e20	-0.074825525
75	0xbd6c1c39	-0.057644103
76	0x3d8b424e	0.06799756
77	0x3d8f0b4e	0.06984578
78	0xbdbcfda8	-0.092280686
79	0xba040dba	-0.0005037446
80	0x3d0557de	0.0325545
81	0xbcd37cf8	-0.025816426
82	0xbcf5d43e	-0.030008432
83	0xbb422913	-0.0029626533
84	0x3d167e44	0.03674151
85	0x3dd2735d	0.1027591
86	0x3cbb1255	0.02283589
87	0xbd80e71c	-0.062940806
88	0xbe04f62f	-0.12984537
89	0x3b025835	0.0019889001
90	0x3c5c0036	0.013427785
91	0x3dec7b2d	0.115469314
92	0xbd8fe0e7	-0.070253186
93	0x3d4b425e	0.04962384
94	0xbcf5c872	-0.030002806
95	0x3d88be5f	0.066769354

attn.out_proj.weight f4 [32, 32]
0	0x3cd6e450	0.026231915
1	0xbd6a5b36	-0.05721589
2	0xbe1dc874	-0.15408498
3	0x3dfdc83e	0.12391709
4	0x3d833cb5	0.06408063
5	0x3db8b23e	0.09018372
6	0x3e27aaf7	0.16373812
7	0xbdb56f58	-0.08859128
8	0x3e0926b8	0.13393676
9	0x3d541de5	0.051786322
10	0x3dcd1c8c	0.100152105
11	0xbe3b03bf	-0.18263148
12	0x3e069560	0.1314292
13	0x3dbee456	0.093208954
14	0xbdffb835	-0.124863066
15	0x3dde8581	0.108653076
16	0x3e1ca875	0.15298636
17	0x3dfae888	0.12251383
18	0x3dea5dbd	0.114436604
19	0xbe06ad6c	-0.13152093
20	0xba9f2ad1	-0.0012143498
21	0x3c3ac195	0.011398693
22	0xbdd4ec01	-0.10396577
23	0xbe23a0c7	-0.159793
24	0xbd25dfd8	-0.040496677
25	0xbdd3089e	-0.10304378
26	0x3d8cdf8a	0.06878574
27	0xbcd8531c	-0.026406817
28	0xbd200660	-0.03906858
29	0x3ddb4cab	0.10707983
30	0xbdcc7873	-0.09983911
31	0xbde197ef	-0.11015307
32	0xbdbf1e4b	-0.0933195
33	0x3e1bc6f4	0.15212613
34	0xbe3e117f	-0.18561362
35	0xbce78098	-0.02825956
36	0x3e1f6ebd	0.15569587
37	0xbe031736	-0.12801823
38	0xbd982796	-0.074294254
39	0xbde0654d	-0.109568216
40	0x3e297ba3	0.1655107
41	0x3e5923e2	0.21205094
42	0x3e4520a2	0.1925073
43	0xbe340224	-0.17578942
44	0x3dcb35db	0.099223815
45	0x3e223a49	0.15842547
46	0xbd9014ce	-0.07035218
47	0x3e16e8f0	0.14737296
48	0xbde1a4f2	-0.11017789
49	0x3c27d630	0.010243937
50	0xbd634002	-0.055480964
51	0x3c54a3b5	0.012978484
52	0x3dd950f8	0.10611147
53	0xbe00c2ff	-0.12574385
54	0xbbaad59b	-0.005213452
55	0xbe56a328	-0.20960677
56	0x3d98ddb0	0.074641585
57	0xbb931124	-0.0044881273
58	0x3e36fd19	0.17869987
59	0xbe1bac4c	-0.15202445
60	0xbdce2a5b	-0.100666724
61	0xbd33a14a	-0.04385499
62	0xbe9e5370	-0.30923033
63	0x3cd7b2f0	0.026330441
64	0xbd0aa8d9	-0.033852432
65	0xbdea4597	-0.114390545
66	0x3e4f0775	0.20217688
67	0xbc862edc	-0.016379766
68	0xbe121224	-0.14264733
69	0xbbe7881f	-0.0070657874
70	0xbdcca3f2	-0.099922076
71	0x3dffe59d	0.12494967
72	0xbdb2c8cd	-0.08729706
73	0x3d89fcf9	0.06737704
74	0xbe04cefd	-0.12969585
75	0x3e35b3de	0.17744395
76	0x3c9f348b	0.019434234
77	0xbcdd2ad9	-0.02699797
78	0x3e0c5c59	0.13707103
79	0x3d9e3158	0.07724255
80	0x3e1af0a8	0.15130866
81	0x3beaa960	0.0071613044
82	0x3d7c7249	0.06163243
83	0x3d2c96b6	0.042135917
84	0x3d0e43f4	0.034732774
85	0x3d7b7a24	0.06139578
86	0x3e003d04	0.12523276
87	0x3e0967cc	0.13418502
88	0x3e020653	0.12697725
89	0xbdfc16c7	-0.12309032
90	0xbe0fae17	-0.14031254
91	0x3e6a337f	0.22871207
92	0xbe13ade8	-0.14421809
93	0xbd212ae5	-0.039347548
94	0x3dcbcead	0.0995153
95	0xbe3297b7	-0.17440687
96	0xbd09f505	-0.033680934
97	0x3d21a452	0.03946335
98	0x3e4562c5	0.19275959
99	0x3d4ff173	0.050767373
100	0x3cc46c78	0.023977503
101	0xbe055a82	-0.13022807
102	0x3d9bd62a	0.07609208
103	0x3d80744f	0.06272184
104	0xbdd94fc2	-0.10610916
105	0xbe2865c7	-0.16445075
106	0x3e37efee	0.1796262
107	0xbe30a528	-0.17250502
108	0xbe84cbb8	-0.25936675
109	0x3cc175d9	0.023615764
110	0x3db5b4f3	0.08872404
111	0x3d4c3695	0.04985674
112	0xbdcff5d4	-0.1015431
113	0xbe1a8da6	-0.15093097
114	0x3de53b33	0.11192932
115	0xbde0cd81	-0.10976697
116	0x3d70fa35	0.058832366
117	0x3c796d12	0.015223758
118	0xbe109df9	-0.14122762
119	0x3cfe65fb	0.031054487
120	0x3e4697b4	0.19393808
121	0x3c91520c	0.017739318
122	0x3c7c0f44	0.015384499
123	0xbe2e1d85	-0.17003448
124	0x3c843b83	0.016141659
125	0xbe19f82c	-0.15036076
126	0xbd735b1e	-0.059413068
127	0xbd87ee78	-0.06637281
128	0x3de7bb5a	0.11315031
129	0xbd724e68	-0.059156805
130	0xbd1b3b73	-0.037898492
131	0xbdb89252	-0.090122834
132	0x3d556e27	0.052107003
133	0xbde24128	-0.11047584
134	0xbab2e339	-0.001364804
135	0x3e6e4144	0.23267084
136	0x3d6c5c53	0.057705235
137	0xbe0f31bf	-0.1398382
138	0xbd7e1417	-0.062030878
139	0xbda731fe	-0.08163832
140	0x3cfaea17	0.0306292
141	0x3d84e032	0.06488074
142	0x3ca378be	0.019955035
143	0x3d1891bb	0.037248354
144	0x3cbd8b60	0.023137748
145	0xbcbdb30d	-0.023156667
146	0xbdcb7676	-0.09934704
147	0x3e14696e	0.14493343
148	0xbd896203	-0.067081474
149	0xbd1d936b	-0.038470667
150	0xbe1f2aef	-0.15543722
151	0x3e255614	0.16146117
152	0x3b87c459	0.0041432795
153	0x3ddc270b	0.10749634
154	0xbd75a511	-0.059971873
155	0x3df93653	0.12168565
156	0xbc880c62	-0.016607467
157	0x3c987b7c	0.01861357
158	0xbd06887f	-0.032845017
159	0x3e08c952	0.13358048
160	0xbe1bb0d8	-0.1520418
161	0x3d3ff59a	0.046865083
162	0xbe841310	-0.25795794
163	0x3b11b8bb	0.0022235352
164	0xbc2a8165	-0.010406827
165	0xbad51bda	-0.0016258911
166	0x3d20f204	0.039293304
167	0x3dd6b840	0.10484362
168	0xbdf94443	-0.12171223
169	0x3e0deebc	0.13860601
170	0x3e33c5d7	0.17555939
171	0xbd92ce90	-0.07168305
172	0xbd864b55	-0.06557337
173	0x3e5651d9	0.2092966
174	0x3de4f21c	0.11178991
175	0xbcbd1388	-0.023080602
176	0xbd5a23de	-0.053256862
177	0xbe05da2c	-0.13071507
178	0x3e1ab80a	0.15109268
179	0xbc5e113c	-0.013553914
180	0xbe304384	-0.17213255
181	0x3e1a19cd	0.15048905
182	0x3ce2b6e0	0.027675092
183	0xbcafde35	-0.021468261
184	0xbe299c5d	-0.16563554
185	0x3d829903	0.06376841
186	0xbdb830f7	-0.08993714
187	0x3d01f6a7	0.031729367
188	0xbd32e14c	-0.04367189
189	0x3c15d81b	0.009145762
190	0xbda721d4	-0.08160749
191	0x3dc7c69c	0.097546786
192	0x3df22af8	0.11824602
193	0x3e46e194	0.19421989
194	0xbddbe662	-0.107373014
195	0x3e2b95dc	0.16756386
196	0x3d70c8d8	0.05878529
197	0xbd18dd83	-0.037320625
198	0x3df8c68b	0.12147244
199	0xbe186bae	-0.14884827
200	0xbdacf864	-0.08445814
201	0x3b8482d2	0.0040439153
202	0xbe29cae7	-0.16581307
203	0xbd74babd	-0.0597484
204	0x3de2d4d6	0.110757515
205	0x3d640328	0.055667073
206	0xbca46c8b	-0.020071289
207	0xbe0b3384	-0.1359387
208	0x3d87d567	0.066325
209	0xbe2e28e2	-0.17007783
210	0xbbdf509e	-0.0068150302
211	0x3e5775d8	0.21041048
212	0x3d836841	0.06416369
213	0x3d18e059	0.03732333
214	0xbe07d8a3	-0.13266234
215	0xbc4d5c95	-0.01253428
216	0xbd6b57ed	-0.0574569
217	0x3e080d28	0.13286269
218	0x3dca756f	0.0988568
219	0xbe157d29	-0.14598526
220	0xbd891e2b	-0.06695207
221	0xbd8d34e0	-0.06894851
222	0x3e08165d	0.13289781
223	0x3e066d87	0.13127719
224	0xbd949d61	-0.0725658
225	0xbc80a57f	-0.015703915
226	0x3c387523	0.011258396
227	0xbe55b8f6	-0.20871338
228	0xbda6b584	-0.0814009
229	0x3da49985	0.08037094
230	0xbd5928ac	-0.053017303
231	0xbde9f7d4	-0.114242226
232	0x3e08f6d8	0.13375413
233	0x3daffa56	0.0859267
234	0x3e126d16	0.14299425
235	0xbde22065	-0.11041335
236	0xbd9cb618	-0.07651919
237	0xbdbdde62	-0.09270932
238	0xbe6a6ec5	-0.22893818
239	0xbdf774ca	-0.120828226
240	0x3de9c4ee	0.114145145
241	0xbe1647ad	-0.1467578
242	0x3c1517f2	0.009099947
243	0xbdfec84f	-0.124405496
244	0x3e56227d	0.20911594
245	0x3d663b71	0.05620903
246	0xbdf5ed86	-0.120081946
247	0x3dbd678f	0.09248268
248	0xbd922859	-0.07136602
249	0xbdd8fe78	-0.10595411
250	0x3e6de583	0.23232083
251	0xbab2abc0	-0.0013631508
252	0x3d25e523	0.040501725
253	0xbdccac03	-0.09993746
254	0xbe0372be	-0.1283674
255	0x3e4d88fe	0.2007179

attn.out_proj.bias f4 [32]
0	0xbc17a302	-0.009255173
1	0x3d3cef4a	0.04612664
2	0xbd5759ed	-0.052575994
3	0xbddc9d89	-0.10772235
4	0x3c59d9fc	0.0132966
5	0x3e0450e6	0.12921485
6	0xbd3e56f9	-0.046469662
7	0x3db41130	0.08792341
8	0xbbcbdd60	-0.0062214583
9	0xbce5ed2e	-0.028067198
10	0x3db6bdde	0.08922933
11	0xbd214eab	-0.039381664
12	0xbba1f189	-0.0049421233
13	0x3c281fd2	0.010261493
14	0x3caa857b	0.020815602
15	0x3cccc231	0.024994941
16	0xbd6d2e33	-0.057905387
17	0x3c244c4b	0.010027955
18	0xbd060f0b	-0.03272919
19	0xbda159a0	-0.07878423
20	0xbd7a119a	-0.061051942
21	0xbdc4cac9	-0.09608991
22	0xbd16879e	-0.03675043
23	0xbd11eb84	-0.035624996
24	0x3ae56f61	0.0017504507
25	0x3dec351d	0.11533568
26	0x3de77af9	0.11302752
27	0xbbe7aa6a	-0.0070698755
28	0x3dd99234	0.10623589
29	0x3da453dc	0.080238074
30	0xbded3762	-0.11582829
31	0xbcdcab78	-0.026937231

norm.weight f4 [32]
0	0x3f62f1ec	0.88650393
1	0x3f73dae6	0.9525589
2	0x3f6d500c	0.92700267
3	0x3f6712e2	0.9026319
4	0x3f7e2b0d	0.9928444
5	0x3f6380ab	0.88868207
6	0x3f4f8240	0.8105812
7	0x3f63a9b6	0.88930833
8	0x3f563ab9	0.83683354
9	0x3f6ed50f	0.9329385
10	0x3f739d67	0.9516205
11	0x3f4bc0f0	0.79591274
12	0x3f4f23ce	0.8091401
13	0x3f527dc4	0.82223153
14	0x3f59b497	0.85041183
15	0x3f553ac9	0.83292824
16	0x3f6e240b	0.9302375
17	0x3f80ecdb	1.0072283
18	0x3f58f8da	0.8475472
19	0x3f5d5d7e	0.8647078
20	0x3f4f0885	0.80872375
21	0x3f8135ec	1.0094581
22	0x3f5247eb	0.8214099
23	0x3f69ee52	0.9137927
24	0x3f73dcc3	0.9525873
25	0x3f4c9872	0.79920113
26	0x3f62693e	0.88441837
27	0x3f625577	0.8841166
28	0x3f60244a	0.8755537
29	0x3f56760a	0.83773863
30	0x3f569ae1	0.83830076
31	0x3f600d8a	0.8752066

norm.bias f4 [32]
0	0xbb9065be	-0.00440666
1	0x3d4cea9e	0.050028436
2	0xbd94fe28	-0.07275039
3	0xbd472faf	-0.04862946
4	0x3c8e8066	0.01739521
5	0x3dda4cc9	0.10659177
6	0xbd9b81ce	-0.07593118
7	0x3dc627fe	0.09675597
8	0x3c25f76f	0.010129794
9	0x3bbe70ee	0.005811802
10	0x3cfc6a25	0.030812332
11	0xbd81ee90	-0.0634433
12	0x3c19613a	0.0093615595
13	0x3d35792f	0.044305023
14	0xbd1d140d	-0.0383492
15	0x3c66b13d	0.014080343
16	0xbbc7e9db	-0.006100876
17	0x3cc27561	0.023737611
18	0xbc863148	-0.016380921
19	0xbd89c238	-0.067264974
20	0xbbac19bc	-0.005252091
21	0xbb23bab4	-0.002498311
22	0xbc3fd6d2	-0.011708932
23	0xbb76e1bf	-0.0037671176
24	0xbc068966	-0.008211469
25	0x3db32c08	0.08748633
26	0x3d9b8baf	0.07595002
27	0x3d18a093	0.03726251
28	0x3db1489d	0.08656428
29	0x3def240c	0.11676797
30	0xbd7163bd	-0.05893301
31	0xbd8326da	-0.06403895

classifier.0.weight f4 [128, 320]
0	0x3db0461f	0.086071245
1	0xbe17dae5	-0.14829595
2	0xbbff9e6c	-0.007800868
3	0x3d8c8f3c	0.06863257
4	0xbac497ee	-0.0014998892
5	0xbe05a444	-0.13050944
6	0xbaf2d37f	-0.0018526166
7	0xbd16d29a	-0.03682194
8	0xbd18d609	-0.037313495
9	0xbd3d62c7	-0.04623678
10	0xbc05d7e8	-0.008169152
11	0x3d6cf88d	0.057854224
12	0x3c8eda87	0.017438186
13	0x3d408e28	0.04701057
14	0x3d9b0744	0.07569745
15	0xbd690a4f	-0.056894597
16	0xbd71f9d9	-0.059076164
17	0x3d8b615a	0.06805678
18	0xbd96f36f	-0.0737065
19	0x3d5edfce	0.054412656
20	0xbcd125da	-0.025530744
21	0xbd5c58ba	-0.053795554
22	0xbcd45d02	-0.025923256
23	0xbd0a7460	-0.03380239
24	0x3c90dcdd	0.01768344
25	0xbd1b65c2	-0.03793884
26	0xbc613e9e	-0.013747839
27	0xbcc6a7f2	-0.024250004
28	0xbca8d0be	-0.020607349
29	0x3d4512c7	0.04811361
30	0x3cd229c2	0.025654677
31	0xbb1ed1c0	-0.0024233907
32	0xbd0998e0	-0.03359306
33	0x3cf02136	0.029312711
34	0x3d9118c7	0.07084804
35	0x3ddac42b	0.10681947
36	0x3c948db8	0.018133983
37	0xbcef5b34	-0.029218294
38	0x3ca70c9b	0.020391753
39	0xbdd037b2	-0.10166873
40	0xbd971a09	-0.07378013
41	0xbcf9929b	-0.030465415
42	0xbd3357fe	-0.043785088
43	0x3c46fb41	0.012144865
44	0x3d3e4925	0.046456475
45	0xbcb0d8e6	-0.0215878
46	0xbcbcf78e	-0.023067262
47	0x3c73288d	0.014841211
48	0x3b64a8ef	0.0034890731
49	0xbd22dc9f	-0.039761182
50	0x3d545904	0.051842704
51	0x3d110822	0.035408147
52	0xbd161265	-0.036638636
53	0x3d4d8554	0.05017598
54	0x3d98b9cd	0.07457314
55	0x3d006b3a	0.03135226
56	0x3c37aa18	0.011209987
57	0xbd1978cc	-0.037468717
58	0x3c98eeaf	0.0186685
59	0xbd31a3b4	-0.04336901
60	0xbd25c889	-0.04047445
61	0xbd54f009	-0.051986728
62	0xbbdfc75f	-0.006829187
63	0x3d8cfac7	0.068837695
64	0xbcadcb2f	-0.02121505
65	0x3c22dc68	0.009940244
66	0xbd5e7005	-0.05430605
67	0x3d05eb84	0.03269531
68	0xbcad276a	-0.021136958
69	0x3c2f8333	0.010712433
70	0x3d91ef13	0.07125678
71	0x3cc5d4fe	0.024149414
72	0x3c0874d7	0.008328638
73	0x3cb13240	0.021630406
74	0xbc9761f3	-0.018479323
75	0x3d503c84	0.050838962
76	0xbd45dc38	-0.04830572
77	0xbd4d35b1	-0.050100032
78	0x3c2e1ea3	0.010627422
79	0xbd072e7b	-0.03300331
80	0x3c21ca1d	0.009874848
81	0x3d97405e	0.07385324
82	0x3ccfb369	0.025354104
83	0xbcf36877	-0.029712899
84	0x3c8f272c	0.017474733
85	0xbd055ced	-0.032559324
86	0x3c2b69fa	0.0104622785
87	0x3c5b1f32	0.013374137
88	0xbd2e4df0	-0.042554796
89	0xbccd41b1	-0.025055738
90	0xbca5f767	-0.020259572
91	0xbc425f2a	-0.011863509
92	0x3d344f7f	0.044021126
93	0xbdbe2086	-0.09283547
94	0xbce032be	-0.027367946
95	0xbd4a97ea	-0.049461283
96	0x3d312c4c	0.043255135
97	0xbd5cce4a	-0.05390767
98	0x3bedd8b3	0.0072584986
99	0xbc8f9ea4	-0.0175317
100	0xbd23ba68	-0.039972693
101	0xbd981053	-0.074249886
102	0x3b31c277	0.0027123967
103	0x3cefad51	0.029257448
104	0xbc636f90	-0.013881579
105	0xbd3c67b1	-0.045997325
106	0xbc5cba1d	-0.013472107
107	0x3c2e5423	0.010640177
108	0x3caffa53	0.021481669
109	0xbd28cde3	-0.041211974
110	0xbc8e2a90	-0.01735428
111	0xbc5f7646	-0.013639038
112	0xbc043f50	-0.0080717355
113	0x3b75a75f	0.0037483794
114	0xbd288169	-0.04113904
115	0x3dc9d097	0.098542385
116	0x3d786fcf	0.060653504
117	0x3d85347f	0.065041535
118	0x3dbf7324	0.09348133
119	0xbd596cde	-0.05308234
120	0x3cf88fa6	0.030341934
121	0x3aaff861	0.0013425463
122	0xbdbb6d46	-0.09151702
123	0xbd9c1ba0	-0.076224566
124	0x3d042eee	0.03227132
125	0xbd591fd7	-0.05300888
126	0xbb935ba5	-0.004497009
127	0xbca66ba4	-0.020314999
128	0xba152590	-0.0005689496
129	0xbd8b3e94	-0.06799045
130	0x3d570134	0.05249138
131	0x3c5b8370	0.013398036
132	0x3d0cb1ea	0.03434936
133	0xbd441df5	-0.04788013
134	0x3c22d3fe	0.009938238
135	0x3ce90710	0.02844575
136	0xbd8af306	-0.06784634
137	0x39820226	0.00024797133
138	0xbc28da69	-0.010305979
139	0x3cb7fe2b	0.022460064
140	0xbc8dbff1	-0.017303439
141	0x3d83498a	0.06410511
142	0x3d783f0c	0.060607
143	0x3d7e41b8	0.062074393
144	0xbcaaa7d0	-0.020831972
145	0xbd4b3a59	-0.04961619
146	0x3d52781c	0.051384076
147	0x3cddeade	0.027089532
148	0x3d4bc988	0.049752742
149	0x3d10338c	0.03520541
150	0xbd702990	-0.058633387
151	0x3c41a0ac	0.011818092
152	0xbbc5e81d	-0.006039633
153	0xbc522d01	-0.012828113
154	0x3c34b8f0	0.011030421
155	0xbc003068	-0.007824041
156	0xbd5064b9	-0.050877307
157	0xbd54f282	-0.051989086
158	0x3cbf60a3	0.02336151
159	0x3d0038d0	0.03130418
160	0x3d5c4156	0.053773247
161	0x3bfddd38	0.0077473186
162	0x3b80b304	0.0039275903
163	0x3c7b293b	0.015329654
164	0x3c2a369c	0.010388996
165	0x3cc8bd1a	0.024504233
166	0x3d080f04	0.033217445
167	0x3c14255e	0.009042112
168	0xbcc34b0a	-0.023839492
169	0x3cd9048f	0.026491432
170	0x3ce8176d	0.028331483
171	0xbd4fb689	-0.05071119
172	0x3dcf4c53	0.101219796
173	0x3c585dc5	0.01320595
174	0xba2c7205	-0.00065782695
175	0xbc477503	-0.012173894
176	0xbd913a52	-0.07091202
177	0xbcd52f66	-0.026023578
178	0xbd3aa22e	-0.045564823
179	0xbc21dd6d	-0.009879452
180	0x3b7aebd1	0.003828753
181	0x3cc9ed37	0.024649246
182	0x3d4cbb88	0.04998353
183	0x3d37f709	0.044913325
184	0x3bc77875	0.0060873576
185	0xbc0ab61a	-0.008466268
186	0x3c8a763b	0.01690208
187	0x3d6f15c1	0.058370356
188	0xbd167d63	-0.03674067
189	0x3d32ecab	0.043682735
190	0xbd0b8caa	-0.034069695
191	0x3d8d1741	0.06889201
192	0xbd1fb3f1	-0.038989965
193	0xbd670e97	-0.0564104
194	0x3d3e5a56	0.04647287
195	0xbcc9083a	-0.024540056
196	0x3c098428	0.008393325
197	0xbc6bb066	-0.014385318
198	0xbcc3f395	-0.02391986
199	0xbd2ef098	-0.042709917
200	0xbd0be931	-0.034157936
201	0xbcdb1160	-0.026741683
202	0x3bc2433a	0.005928424
203	0x3da05075	0.07827846
204	0xbcf0c269	-0.029389577
205	0x3c804077	0.01565574
206	0xbd2c064d	-0.041998196
207	0x3d227802	0.03966523
208	0x3cfddd13	0.030989205
209	0x3a860947	0.0010226154
210	0xbc79fb5d	-0.015257684
211	0x3cb8ca5b	0.022557428
212	0xbd88ce23	-0.066799425
213	0x3d23316d	0.039842058
214	0xbca32f67	-0.019920064
215	0xbbdd51f5	-0.006754155
216	0xbc2d4303	-0.010575059
217	0xbca94354	-0.020661987
218	0xbd168061	-0.036743525
219	0xbcacf2fa	-0.021111954
220	0xbd8010fe	-0.06253241
221	0xbba31c82	-0.0049777636
222	0xbd1003a5	-0.035159726
223	0x3d363603	0.044485103
224	0x3b5de7cf	0.0033860093
225	0x3d055db3	0.03256006
226	0xbcea60a6	-0.028610539
227	0xbd2a8ebe	-0.041640036
228	0xbcae0b01	-0.021245481
229	0x3d8632ec	0.06552681
230	0x3cfbf247	0.030755175
231	0xbd8f2559	-0.069895454
232	0x3db3340d	0.08750162
233	0xbdb203a9	-0.08692104
234	0xbcc9a8f4	-0.024616696
235	0x3b896caa	0.004193862
236	0x39d36f83	0.0004032814
237	0xbcc23113	-0.023705041
238	0x3d5a0263	0.053224932
239	0x3d1ce6aa	0.038305916
240	0x3cdc6d5d	0.026907617
241	0xbbdf19d9	-0.006808501
242	0x3ce8e14a	0.028427739
243	0x3cfac500	0.030611515
244	0x3ca858ed	0.020550216
245	0x39474fee	0.00019007895
246	0x3c4efb26	0.012633121
247	0x3cbed49d	0.023294741
248	0x3be52f05	0.0069941306
249	0x3c6d3de5	0.014480089
250	0xbde6ae3f	-0.112637036
251	0xbcd62c5b	-0.026144197
252	0xbca476e3	-0.02007622
253	0xbcd146a0	-0.025546372
254	0xbc812138	-0.01576291
255	0x3d2727cb	0.040809434

classifier.0.bias f4 [128]
0	0xbdbbc153	-0.09167733
1	0xbda3617a	-0.079775766
2	0xbd937454	-0.07199922
3	0xbd8df98b	-0.06932362
4	0xbdc1da4a	-0.094654635
5	0xbdbf5bfc	-0.093437165
6	0xbda96fd4	-0.08273283
7	0x3bd7909f	0.0065785195
8	0xbd3830cd	-0.044968415
9	0xbd3b65d0	-0.045751393
10	0xbd005f6e	-0.03134101
11	0xbd8fc452	-0.07019867
12	0xbd65cbbf	-0.05610251
13	0xbdaa29cd	-0.08308754
14	0xbd915211	-0.07095731
15	0x3b2f8928	0.0026784632
16	0xbdc135af	-0.094340675
17	0xbdb32d91	-0.087489255
18	0xbd6cf4dc	-0.057850704
19	0xbdd554c9	-0.10416562
20	0xbd5787fd	-0.052619923
21	0xbd5c66fc	-0.05380915
22	0xbdab3f15	-0.08361641
23	0xbd55b568	-0.052174956
24	0xbe09c1f7	-0.13452898
25	0xbda67e7a	-0.08129592
26	0xbd10694c	-0.03525667
27	0xbdaa37e8	-0.083114445
28	0xbd96d8af	-0.07365548
29	0xbd7b1f30	-0.06130904
30	0xbd6e9adc	-0.058253154
31	0xbd3a0820	-0.045417905
32	0xbc8fea4e	-0.01756778
33	0x3bef00b4	0.007293785
34	0xbba4385b	-0.005011601
35	0xbdb5b6da	-0.08872767
36	0xbd3e1bc7	-0.04641321
37	0xbd4df5ed	-0.05028336
38	0xbde15c42	-0.11003925
39	0xbc8628b0	-0.016376823
40	0x3c04c8f7	0.008104554
41	0xbd09f2a3	-0.033678662
42	0xbccd7f95	-0.02508525
43	0xbd262377	-0.040561166
44	0xbda9394a	-0.0826288
45	0xbdaa6b01	-0.083211906
46	0xbdb63d8e	-0.088984594
47	0xbc274796	-0.0102099385
48	0xbcfcbd3f	-0.030851958
49	0xbd87da77	-0.06633466
50	0xbd89380c	-0.06700143
51	0xbd196e2b	-0.03745858
52	0xbd881fa8	-0.06646663
53	0xbdba3da9	-0.09093792
54	0xbcbfbcdd	-0.023405487
55	0xbd2dbaa2	-0.042414315
56	0xbde92b4e	-0.11385213
57	0xbd58228c	-0.05276732
58	0x3a6b9565	0.00089868
59	0xbd54278b	-0.051795524
60	0xbd363817	-0.044487085
61	0xbd8b47d8	-0.068008125
62	0xbdc37574	-0.09543887
63	0xbc731c0a	-0.014838228
64	0xbdfa599d	-0.122241236
65	0xbd3cd0ac	-0.046097443
66	0xbdb49cb5	-0.08818952
67	0xbe21bf55	-0.15795644
68	0xbcc6cea3	-0.024268454
69	0xbd64f678	-0.055899113
70	0xbbb91fa5	-0.0056495243
71	0xbcdfb9d1	-0.027310284
72	0xbd055231	-0.032549087
73	0xbc2955ee	-0.010335429
74	0xbd5b3f7b	-0.053527337
75	0xbcb13d44	-0.021635659
76	0x3c44dccf	0.0120155355
77	0xbce9c8ca	-0.028538126
78	0xbce6f9b8	-0.028195247
79	0xbd827108	-0.06369215
80	0x3b0aa288	0.0021154005
81	0xbdae870d	-0.08521853
82	0xbd982886	-0.07429604
83	0xbd3390e2	-0.043839343
84	0xbdbaf2e5	-0.0912836
85	0xbd00b552	-0.03142292
86	0x3c8e4529	0.017366963
87	0xbdb253c9	-0.08707387
88	0xbdca0f3f	-0.09866189
89	0x39ab88a0	0.00032717455
90	0xbdb520bd	-0.08844135
91	0xbdab505f	-0.08364939
92	0xbd1fdbd4	-0.039028004
93	0xbdf08f7c	-0.117461175
94	0x3b6a09ba	0.0035711364
95	0xbe18d79d	-0.14926
96	0xbd6bffaf	-0.057616886
97	0xbd1d32b5	-0.038378436
98	0xbe20e1fa	-0.15711203
99	0xbd9c0fc4	-0.076201946
100	0xbce1de94	-0.027571954
101	0xbc5aa018	-0.013343833
102	0xbc99e603	-0.018786436
103	0xbd381a37	-0.044946875
104	0xbdb83672	-0.089947596
105	0xbc89df28	-0.016830042
106	0xbd1f7a15	-0.038934786
107	0xbde5c522	-0.11219241
108	0xbd845209	-0.064609595
109	0xbd3c2953	-0.045937847
110	0xbdfa5910	-0.122240186
111	0xbcc2917a	-0.02375101
112	0x3c65b660	0.014020532
113	0xbcd76d02	-0.026297096
114	0xbdcfa9d0	-0.10139811
115	0xbd7d12c1	-0.061785463
116	0xbc4910c3	-0.012272063
117	0xbd47c688	-0.04877332
118	0xbcdcc39b	-0.02694874
119	0x3aae6987	0.0013306596
120	0xbd56bed6	-0.05242809
121	0xbd455a73	-0.048181962
122	0xbcaef0dc	-0.021355085
123	0xbdf24fb2	-0.11831607
124	0xbdf75516	-0.12076776
125	0xbb361f43	-0.002778963
126	0xbd07b4a1	-0.033131246
127	0xbcae19ee	-0.021252599

classifier.3.weight f4 [1, 128]
0	0x3d1f4ed3	0.038893532
1	0xbca8e749	-0.020618098
2	0xbcd57809	-0.026058214
3	0x3d0db1d9	0.034593437
4	0xbc3a7f80	-0.011382937
5	0x3d0a8786	0.03382065
6	0xbd35963a	-0.04433272
7	0x3ca3297b	0.01991724
8	0xbc950e14	-0.01819519
9	0x3cf8eea6	0.030387234
10	0xbc0ee8fd	-0.008722541
11	0xbc76d894	-0.015066285
12	0x3c21e866	0.009882068
13	0x3c07493c	0.0082572065
14	0x3d02f6f6	0.0319738
15	0xbc2356dc	-0.009969439
16	0x3be4dc5d	0.006984277
17	0x3ceebbcf	0.029142288
18	0xbb2a126e	-0.0025950926
19	0x3c2b25be	0.01044601
20	0xb9c82404	-0.00038173806
21	0xbb715422	-0.0036823829
22	0x3d0697d8	0.032859653
23	0x3c93034e	0.017945912
24	0x3ca96eae	0.020682659
25	0xbd03bb06	-0.03216078
26	0x3c0e6773	0.008691656
27	0xbc655cc4	-0.013999168
28	0xbb9a21cb	-0.0047037355
29	0x3d2c2c8c	0.04203467
30	0xb988c994	-0.0002609013
31	0x3cc20a63	0.023686593
32	0xbc4fc70c	-0.012681734
33	0x3cab93c1	0.020944478
34	0xbc6f344e	-0.014599873
35	0x3c6d6583	0.014489534
36	0xbb94595d	-0.0045272545
37	0xbcd51d8c	-0.026015066
38	0x3c6ce44b	0.014458726
39	0xbca55ad8	-0.02018492
40	0x3acd5fb6	0.0015668783
41	0x3c0d3656	0.008618912
42	0x3b102935	0.0021997218
43	0xbb9a39b8	-0.0047065876
44	0x38fb9085	0.000119955315
45	0xbc94148d	-0.018076206
46	0xbac54276	-0.0015049714
47	0x3c474259	0.012161815
48	0xbc705db6	-0.01467078
49	0x3cfe54ce	0.031046297
50	0xbc6d066b	-0.014466862
51	0xbc97fb75	-0.018552521
52	0xbcbd1c9a	-0.023084927
53	0xbbac3cb4	-0.00525626
54	0x3c15d083	0.009143951
55	0x3bdd5358	0.00675432
56	0xbaee1cf3	-0.0018166587
57	0x3d2821f3	0.041048
58	0xbc3695ba	-0.011144096
59	0xbcb6787a	-0.022274245
60	0x3b4711fe	0.0030375714
61	0xbc0fac2a	-0.008769074
62	0x38fff9f2	0.000122059035
63	0xbadbc513	-0.0016767107
64	0xbcb5cae3	-0.02219147
65	0x3b85e310	0.004085906
66	0xbc850d9e	-0.016241845
67	0xbb62f671	-0.0034631754
68	0xbbb1d705	-0.0054272437
69	0x3b2dc08a	0.0026512467
70	0xbc919420	-0.017770827
71	0x3cd74458	0.026277706
72	0xbb34c32d	-0.0027582154
73	0xbbaa5eff	-0.0051993127
74	0x3ca9a900	0.020710468
75	0x3c0bb708	0.008527525
76	0x3ca8303f	0.020530818
77	0xbcb3218a	-0.021866579
78	0xbc5de4c2	-0.01354331
79	0xbcdc52dc	-0.02689498
80	0xbcc63fa3	-0.024200266
81	0x3cbb86b8	0.022891387
82	0x3ce840e0	0.028351247
83	0x3d030d5c	0.031995162
84	0xbbac1bd5	-0.0052523413
85	0xbb84267c	-0.004032908
86	0x3c95ffaf	0.018310396
87	0x3c046c48	0.008082457
88	0xbc72a7c6	-0.014810508
89	0x3c56d48c	0.013112199
90	0xb9b5b2ef	-0.00034656326
91	0x3c7e5ceb	0.015525083
92	0xbcd75439	-0.026285278
93	0xbb4af2a1	-0.0030967372
94	0x3c72f1ea	0.014828185
95	0xba8ca97c	-0.0010731663
96	0xbce7f604	-0.028315552
97	0x3c3d9da8	0.011573233
98	0x3c326597	0.010888479
99	0x3bf7e68e	0.007565326
100	0xbc9843a1	-0.018586935
101	0xbcf62e9c	-0.030051522
102	0x3c3b5f84	0.011436347
103	0x3acb7657	0.0015522939
104	0xbc81ffbe	-0.015869018
105	0x3c21fac0	0.009886444
106	0xbc041137	-0.008060745
107	0xbbb9bb07	-0.0056680473
108	0x3b3f4d45	0.0029190343
109	0x3c6875a1	0.014188201
110	0xbc127594	-0.008939166
111	0xbd33e785	-0.043921966
112	0xbcdcd498	-0.026956841
113	0x3b703c79	0.0036657138
114	0x3c1cc9b4	0.009569574
115	0xbcefb9f1	-0.029263468
116	0x3cf2672f	0.029590217
117	0x3c846b7c	0.016164534
118	0xbb967a81	-0.0045922403
119	0x3ce0d534	0.027445413
120	0x3c1e2f7a	0.009654874
121	0x3c1e0ced	0.009646636
122	0x3ca5c63a	0.020236123
123	0xbba66381	-0.0050777798
124	0x394b70a0	0.00019401545
125	0x3cf98c91	0.030462535
126	0xbb87d551	-0.0041453023
127	0x3c3677bd	0.011136946
