champ_predictor.pt (torch, 447956 bytes, 12 tensors)

embedding.weight f4 [1000, 32]
00000000: daee 5abe 2094 d4bf 3650 f4be f995 93be
00000010: 9e3f d03f 4759 2bbf 669b d33f e70f 653f
00000020: 00e1 2d3f 70bf 0a40 bf98 52bf 19f6 30bf
00000030: 0076 84be a1f3 583f 042a 44bf ba16 92be
00000040: 1994 c4bd 8fb7 a0bf 6d70 c73f b26c be3f
00000050: eca7 953f 8182 bebe cbd2 96bf 7b33 1b3f
00000060: ed3d 8cbe 3ef9 5cbf 0291 d03f 3ff9 94bf
00000070: ff7b 1c3e cdc3 56bf ec34 ba3e 2184 8bbe
00000080: c9e1 cbbe f126 acbe 872b 3540 9b8d 13bf
00000090: 4fbc 313f 35ca aabf b57d ff3e ddc9 2abf
000000a0: 7a6a fc3e ebf2 ad3e aacc 4abf 764f 38be
000000b0: 3da8 b53f 263c b0bf 3142 3040 c312 28bf
000000c0: ada0 89bf 421d d2be 69cb 76be 6da9 dc3d
000000d0: 47d2 96bf 87a7 c23f 6249 dabf 67e2 0fbf
000000e0: 56a7 06c0 6f40 b53e a65b f73e e62b 2e3f
000000f0: 448d e23f b553 b4be 93c0 8c3f 9499 a63f
00000100: 9734 993e 8b6c 6cbe e1ed 763f cfad fd3e
00000110: 6e49 8cbf acf1 01c0 6d61 febe c74d 3b3f
00000120: 44ca 8b3f 1625 303e d7a4 e43e 5b1c 90bf
00000130: 54b4 d33f 1287 8ebf 334a bf3f 7aed 263f
00000140: dd21 2c3f cd4b e73f 3fd2 033e 64c4 0d3f
00000150: 2ebe 573e a4e0 103e 6d8f 02bf 6946 fe3d
00000160: 9f92 c3bf 3e5c afbf d54f 8f3f 18aa 1ac0
00000170: 419a 70be 900e a73f 9e40 973f ea8b a6bd
00000180: d59f 0740 b59f 723f b403 c8bf ce5b 943e
00000190: 0738 75bf 08fe abbf f3f4 f63f efbf a63f
000001a0: bbaf 073f 2418 0f3f 02cc 1440 3e28 063f
000001b0: 24f6 e7bd 69c4 0cbe 3a4b b1be f7a8 22bf
000001c0: 5742 07bf 0d25 e33e e18d 01bf 3ff9 883e
000001d0: 7e80 cb3e 6ac2 15bf 877d 8fbc aa12 093f
000001e0: 5172 24bf 7566 88bf fbf4 cb3f 882a adbf
000001f0: 5ec8 83bf 23ce 53be cd73 003f 540b 99be
00000200: 859f e23f 6ea3 89be b509 b2be 64b7 a8bf
00000210: b6ab 20c0 2f8e 9c3f 9d26 2bbf 0fbe fa3e
00000220: b2b5 113d 362e bf3f 482f c73e b9f9 c43e
00000230: d96e bcbe eb7f 5bbe 343e 8e3f 37c0 1940
00000240: 1a8f 3840 19f0 f4be b5c8 e33e 44aa 1a3f
00000250: b33c aabf 9546 b0bf c784 1f3d c663 803f
00000260: be1f bebd 199a cc3f b942 ee3e 1060 1b3d
00000270: 3c93 04bf d95f cebd b599 efbf 8b29 02c0
00000280: 4d52 093f 2ebf df3b 83d6 d0bf 4068 cebb
00000290: cbd7 77bf 069b 91bf 6f5e 95be 7622 8fbf
000002a0: 9f90 96be f977 afbe 2765 b9bf c11a 18bc
000002b0: 0a20 073e dcb9 94bf 6a98 9d3f 1839 84bf
000002c0: 5cf7 b53c 62be cc3e 14e8 a7bf 75b8 05bf
000002d0: 395f ce3f 96c9 e7be 00c9 81be 656e 573e
000002e0: 7fcd c4bf c68e 963f 5c32 833f 876f f03e
000002f0: 9b3d 113f 593b 88bf 9eb9 7ebf 4534 083f
00000300: 9c2b acbf a153 253f a9e9 043f e9c5 993e
00000310: ccfb 1b3f ba4b 2dbf 1a14 523f e691 65bf
00000320: 0704 0fbf 8b5a a6bf d0a6 8f3e 7a4b 883f
00000330: ed6f 0f3e 6001 dabf 587d d4bf 52e0 b03e
00000340: fc79 efbe ac84 b73f 7284 bf3f 0e7b 8abf
00000350: 5afb 1dc0 1736 c5bf b170 10bf ff74 8a3f
00000360: aedd 24c0 59d7 df3e f8c3 133e 5e4c df3f
00000370: 81be 773f ca04 0b3e 8edb 093f b981 00c0
00000380: 56a4 1640 5eda 89be 60ef 7e3f e6dc 0b3e
00000390: a124 f43f bd76 b6bf 71ad 98be 618d 063f
000003a0: ce35 24bf 6d81 333e 91c2 e73f a475 6d3e
000003b0: 60d4 1ebf 4e1a 7c3f 421d 123e acb3 583e
000003c0: f3cc 603e 7c8f 85be aed1 fbbe 2b80 283f
000003d0: cb5f 12bf e5b5 6c3f dea5 69be 1474 25bf
000003e0: d82a e53f 5a79 edbe f6a2 e93f e9af 863f
000003f0: 746b 92bf 29af 00bf ba2f 1f3f 2154 b0bf
-0.21380177 -1.6607704 -0.47717446 -0.28825358 1.6269414 -0.669331 1.6531799 0.8947739
0.6792145 2.1679344 -0.8226432 -0.69125515 -0.25871277 0.8474675 -0.7662661 -0.28532964
-0.0959856 -1.2556018 1.5581185 1.4876921 1.1691871 -0.37208942 -1.1783079 0.6062543
-0.27390996 -0.86317813 1.6294253 -1.1638564 0.15281676 -0.8389252 0.363685 -0.27249244
-0.39820698 -0.3362346 2.8307817 -0.5763795 0.6942796 -1.3342959 0.49900594 -0.6671427
0.49299985 0.33974394 -0.7921854 -0.17999062 1.4191967 -1.3768356 2.75404 -0.6565363
-1.0752159 -0.41037947 -0.24101032 0.10774503 -1.1782922 1.5207375 -1.7053645 -0.5620484
-2.1039634 0.3540072 0.4831211 0.68035734 1.7699361 -0.35220113 1.0996269 1.3015618
0.29922935 -0.23088281 0.96456724 0.49546668 -1.0959909 -2.0303755 -0.49683705 0.73165554
1.0921102 0.17201647 0.44657013 -1.1258653 1.6539407 -1.113497 1.4944519 0.6520611
0.6723917 1.8070008 0.12873171 0.55377793 0.21068642 0.14148194 -0.510001 0.124157734
-1.527912 -1.3700025 1.1196238 -2.4166317 -0.23496343 1.3051319 1.1816595 -0.08132155
2.1191304 0.94774944 -1.562613 0.2897629 -0.95788616 -1.3436899 1.9293503 1.3027323
0.5300252 0.5589621 2.3249516 0.52405155 -0.113262445 -0.137468 -0.34627706 -0.6353907
-0.528356 0.44364205 -0.50607115 0.2675266 0.3974647 -0.5849978 -0.01751591 0.53544104
-0.64236933 -1.0656267 1.5934137 -1.3528605 -1.0295522 -0.20684104 0.501767 -0.29891455
1.7704931 -0.268825 -0.3477303 -1.3180966 -2.5104804 1.2230891 -0.66855794 0.48973128
0.03557367 1.4935977 0.3890326 0.38471773 -0.3680332 -0.21435516 1.1112733 2.4023569
2.8837342 -0.4783943 0.44489065 0.60416055 -1.3299774 -1.377154 0.038944986 1.0030448
-0.09283398 1.5984527 0.4653528 0.03793341 -0.5178716 -0.10076875 -1.8718783 -2.0337856
0.53641206 0.0068282103 -1.6315464 -0.0062990487 -0.9681365 -1.1375434 -0.2917361 -1.1182392
-0.29407212 -0.3427122 -1.4483994 -0.009283722 0.13195816 -1.161922 1.2312138 -1.0329924
0.022212677 0.39989 -1.31177 -0.52234584 1.612281 -0.45270985 -0.25348663 0.21038206
-1.5375212 1.1762321 1.0249743 0.4696009 0.5673463 -1.0643111 -0.9950198 0.53204757
-1.3450809 0.6458073 0.5191904 0.30033806 0.60931087 -0.67693675 0.8206192 -0.8967575
-0.5586552 -1.2996382 0.28056955 1.0648034 0.1400754 -1.703167 -1.6600752 0.34546143
-0.46772754 1.4337363 1.4962294 -1.0818803 -2.4684663 -1.5407132 -0.56421953 1.0816954
-2.5760303 0.43718985 0.14430225 1.744518 0.9677506 0.13576046 0.5385064 -2.0079176
2.3537803 -0.26924413 0.9958401 0.13658485 1.9073678 -1.4254986 -0.29819825 0.5255948
-0.641446 0.17529841 1.8106252 0.23189408 -0.6204281 0.9847764 0.14268973 0.2116229
0.21953182 -0.26086032 -0.4918341 0.6582057 -0.5717742 0.9246505 -0.2281718 -0.64630246
1.79037 -0.46381646 1.8252857 1.0522434 -1.1439042 -0.50267273 0.621822 -1.3775674

attn.in_proj_weight f4 [96, 32]
00000000: 8085 a83d 23c5 e3bd 1fbe 11be 6ad9 88bd
00000010: 8eda 523e ad57 603e 068b 393c 100b 19be
00000020: d72b 3abe 2219 533e 067e 00be 2fb9 5a3d
00000030: 42d4 9cbc 467e 41be 0450 6abd 0e97 93bd
00000040: cbe7 323e 9354 563e 6fef 3a3e 97e1 953e
00000050: acc7 c2bd b58d e13d 4b83 99bd e299 fc3d
00000060: a1fd b73c 8aa5 fabd 5692 dabd c828 bbbc
00000070: 6ec6 2d3d 0901 42bd 153b 013e b426 36bc
00000080: 2ff6 b13d c895 a33d 15e4 01bd 7809 2fbd
00000090: 7571 2fbd ffe4 41bd 80bd 3ebe 578d b2be
000000a0: e586 1a3e e238 efbd 5cb7 bc3d 8162 313d
000000b0: f798 21be b676 4b3c 3d21 c5bd bfa5 39be
000000c0: 89cc 38be 1030 ef3d 72f5 ca3d 9291 423d
000000d0: 25c0 3e3e 6632 33be fdc9 45be 9b25 483e
000000e0: 8c41 9dbd c3b8 3c3c aff2 49be ffd8 083e
000000f0: 85e6 1fbe 637f e23d e804 463d 0fec 3bbe
00000100: b709 263e 3fc2 15be 9d69 0d3e 9b97 91be
00000110: e51b f23d 7b75 133e b590 493c df06 973c
00000120: 710f babc fcfe 483e 051f febd 3d09 7dbe
00000130: 2cc1 053c 1072 6b3e 022a 143d 5a5d 973d
00000140: dea6 ec3d 3313 5d3d 210b b13d 4755 f0bd
00000150: c710 823d 6669 31be d14c 64be d65e 1b3e
00000160: d640 303e 60e0 363e 572d 87be d584 193e
00000170: 453e 25be accb ccbd 7efe 09be 9e31 0bbb
00000180: c133 143e 6afc 8cbe d216 073e 2631 8ebd
00000190: b67b 4ebd 739c 29bd 0b3c 213e d5b6 d1bd
000001a0: 96cb 473e af8c 2a3e acd0 debb 9682 ba3d
000001b0: b3bf 20be 0d21 97bd cbd1 963d 1cb7 c5bb
000001c0: 16ad 6abe 62cd c0bd af58 a63d 1bc9 0dbe
000001d0: 0864 fc3d ed23 663d e90e 613d 074f cbbd
000001e0: 1fd3 0d3e ea6e fa3a b84c 5abe 2e3a 60bd
000001f0: 15b9 b5bd 0e29 4b3e 17c1 37bd 6bf1 76bd
00000200: b06f 9c3e 3e22 193d 4221 00be 8e94 973d
00000210: 4a30 273e ffb3 dbbd c6bc 15be a2ae 793e
00000220: cbfd c4bd 14ca 8dbc b31b 0dbe 04bf febd
00000230: 5f36 18be 2299 80bd cff4 82be 630d edbd
00000240: d277 703e 1216 1cbe 2d71 743d 0ea8 36bd
00000250: 431c 0e3e 449b 973d 7f2e 5c3e 1899 3ebe
00000260: cace 853d b8d1 65be 9af6 7b3e 9718 d73d
00000270: 51f2 3dbe 5f4b cabd a151 d13d bd08 c3bc
00000280: 0529 6d3e 05da 25be e272 e3bd 4720 56be
00000290: c201 b7bb 1d7f 19be 1649 4bbe e7bd 5cbd
000002a0: fcd8 fb38 412e 11bd 7333 4cbd 4fe2 2fbd
000002b0: b5fe 02be 2597 bcbc e7d8 69bd 62a5 193e
000002c0: 43c7 003e 132f 103e 3c75 f5bd 73ca b13c
000002d0: 9b20 22be fc66 4c3e fdf9 043e 84c7 5ebe
000002e0: e47c e93d 15e6 4bbc 0ad4 1dbe cc52 f13d
000002f0: 9c2e a23d 2876 67bc d89c 1a3e 76f9 30be
00000300: 5d4e 04be 8382 eabd 6903 d23d 5f6f 453e
00000310: e07f 943c e01d c3bc b667 4e3e 79b9 5d3d
00000320: 1147 3e3e 77d9 64bc 4b08 07be 8ccf 90bc
00000330: dfda 8c3d ebb9 a1bd 8d8f 24be b286 103c
00000340: 1378 983c c712 a1bd e31c de3c 4932 333e
00000350: ff21 3f3e 30aa 243d 50f0 0b3e 0608 af3d
00000360: 7c15 b83d 7d52 cb3d 6815 1d3e 961b dbbd
00000370: 7c16 cf3d 9a7d a239 9225 dcbd c15b 153e
00000380: 2716 683d 70e4 3ebe f8d5 453d 9baa 343d
00000390: 5293 56be 033e 6ebc 64c3 45be ff2e c13c
000003a0: 84ab fbbd 8a4e 74bd 2a5f 823d d988 04bc
000003b0: 6e4c 8a3d cedf babd 948c 403e 6615 7d3e
000003c0: b3dd 003e 6c07 c43b db3e 27be 0be9 03bd
000003d0: 3396 2abe f8ad bf3c 4b02 2e3e 09f9 cfbd
000003e0: c5be e53d 290d 35be 0cb1 863d 41d6 d1bd
000003f0: 3673 333e 5c08 fdbc 2e9b f0bc 6c49 05be
0.08228588 -0.11121585 -0.14232682 -0.066820934 0.20591184 0.21908446 0.01132465 -0.14945626
-0.18180786 0.20615056 -0.12548074 0.05339926 -0.019144181 -0.18895826 -0.057205215 -0.07206546
0.17471235 0.209307 0.18255399 0.29273674 -0.09510741 0.110133566 -0.07495745 0.12334038
0.022459807 -0.12238605 -0.106724426 -0.022846594 0.042425565 -0.04736427 0.12620194 -0.011117626
0.08689534 0.07987553 -0.031711657 -0.04273364 -0.04283281 -0.04733753 -0.18626976 -0.3487346
0.1509052 -0.116807714 0.092146605 0.04330683 -0.15781008 0.01241844 -0.0962548 -0.18129633
-0.18046774 0.11679089 0.09910096 0.047502108 0.18627985 -0.17499694 -0.19315334 0.19545595
-0.07678518 0.01151866 -0.19721483 0.13364027 -0.1561528 0.11059453 0.048344523 -0.18351768
0.16214643 -0.1462488 0.1380982 -0.28435978 0.11821727 0.14400284 0.012302567 0.018435894
-0.022712441 0.19628519 -0.1240826 -0.24710555 0.008163732 0.2299273 0.036172874 0.07390852
0.11555265 0.053973388 0.08644701 -0.11735015 0.06350856 -0.17325363 -0.22294928 0.15172896
0.17212233 0.1785903 -0.2640178 0.14992078 -0.16137035 -0.09999785 -0.13475987 -0.002123929
0.14472868 -0.27536327 0.13192299 -0.06942968 -0.05041095 -0.041408967 0.15745561 -0.102399506
0.19511256 0.16655229 -0.006799778 0.091069385 -0.15698127 -0.07379351 0.073642336 -0.006033791
-0.2291759 -0.09414174 0.08122384 -0.13846247 0.12323767 0.056186605 0.05494586 -0.09927183
0.13850068 0.0019106541 -0.21318328 -0.054742984 -0.08873192 0.1983988 -0.04486188 -0.060288828
0.3055396 0.03738617 -0.12512687 0.074013814 0.16327015 -0.10727691 -0.14622793 0.24383023
-0.0961872 -0.017308272 -0.13780098 -0.12438777 -0.14864491 -0.06279208 -0.255774 -0.11574819
0.23483208 -0.15242794 0.059678245 -0.044593863 0.13877968 0.074026614 0.21502112 -0.18613088
0.065335825 -0.22443283 0.2460579 0.10502737 -0.18549468 -0.09877657 0.102206476 -0.023807878
0.23160179 -0.16196449 -0.111058965 -0.2091075 -0.0055849263 -0.14989896 -0.19852099 -0.053892042
0.00012009029 -0.0354445 -0.049853753 -0.042940434 -0.12792476 -0.02302129 -0.05709162 0.15004495
0.12576012 0.14080457 -0.11985251 0.02170298 -0.1583275 0.1996116 0.12985988 -0.21755797
0.11400774 -0.012444993 -0.15412918 0.117833704 0.07919046 -0.014127292 0.15098894 -0.17282662
-0.12920518 -0.114506744 0.10254557 0.19280766 0.018127382 -0.023817956 0.2015675 0.05413196
0.18581797 -0.013967863 -0.13186757 -0.017677091 0.06877684 -0.07896789 -0.16070385 0.008821176
0.018611943 -0.078649096 0.027113384 0.17499651 0.18665312 0.040201366 0.1366589 0.08546452
0.08988473 0.09927843 0.15340197 -0.10698621 0.101117104 0.00030992628 -0.107493535 0.14585783
0.05666175 -0.1864183 0.04829976 0.044108015 -0.20954636 -0.014541152 -0.19312817 0.02358198
-0.122885734 -0.059645213 0.06365807 -0.008089268 0.06752859 -0.091247186 0.18803626 0.24715194
0.12584572 0.00598233 -0.16332571 -0.03220467 -0.16658859 0.023398384 0.16993062 -0.101549216
0.11218027 -0.17680801 0.06576738 -0.10245944 0.17524418 -0.030887775 -0.02937087 -0.1301629

attn.in_proj_bias f4 [96]
00000000: 6fc5 d53c de21 fabc 47f7 2dbd 5da6 a9bb
00000010: 3842 113d bb27 51bc 3895 c7bc fbed 15bd
00000020: 2632 1dbb b141 813c 9cda 253a 0d24 a93c
00000030: c1b1 443a 92ad 6dbc 1006 c53b c8f6 9d3c
00000040: 034d 003c 3b6a 563d f349 8f3b e98a 39bd
00000050: 6050 36bc 22ab d93c 1036 c93c bce2 473c
00000060: 3242 ab3c 0899 3cbc a7d0 213b f139 38bd
00000070: e549 e1bc c026 b5bc 3640 8cbd 2141 133d
00000080: b1d4 7bb7 e88b 9ab8 e947 46b9 ba77 5d37
00000090: 1753 18b9 99c2 e4b7 9714 0138 d72f 01b8
000000a0: b478 5239 93f6 bdb8 55ab 7eb8 0541 0839
000000b0: b65f c639 737b a0b8 b7ad b8b8 fe88 4d39
000000c0: 200c bd37 dd77 3cb8 b07d 3f39 f001 b638
000000d0: 71bb 22b8 0e75 2239 6750 4a38 eb0a 8cb7
000000e0: 6aad b238 2f61 1638 9e85 06b8 80de 5b34
000000f0: 3f09 75b9 2855 8bb8 6402 8138 5ec1 59b8
00000100: bdcf bf3c a635 e83c 3ce1 a239 c030 d4bb
00000110: 1048 b8bc a4c7 1f3b 1894 53bb 3e4d 95bc
00000120: fa68 423d 0e4f 33bd f9dd c03b cab8 91bc
00000130: 5844 193b b914 e43c 84e9 513c 9efd ee3c
00000140: 75ef 3fbb 371d f4bc 83ff 9abc c1f5 8cbb
00000150: 3b65 4dbb ea58 b83c e775 f5bb a48e 33bd
00000160: e4af 18bd 3ef3 f6bc 44c4 4d3c 914a 1cbc
00000170: 2485 fc38 fc7c 0d3c 2c16 bebc e378 e13c
0.02609512 -0.030533727 -0.04247215 -0.0051773028 0.03546354 -0.01276582 -0.024363145 -0.03660391
-0.002398619 0.015778394 0.0006326826 0.020647073 0.0007503294 -0.014506714 0.0060126856 0.019282714
0.007830861 0.052347403 0.004372829 -0.04529849 -0.011127561 0.02657086 0.024561912 0.012200054
0.020905588 -0.011511095 0.0024691017 -0.044977132 -0.027501056 -0.022113204 -0.06848185 0.035950784
-1.5010287e-05 -7.369352e-05 -0.0001890954 1.32005025e-05 -0.00014526803 -2.7270335e-05 3.0775172e-05 -3.080055e-05
0.00020072126 -9.05815e-05 -6.0717884e-05 0.00012994192 0.00037836813 -7.652389e-05 -8.8061606e-05 0.00019601357
2.2536202e-05 -4.4934324e-05 0.00018262002 8.678797e-05 -3.879838e-05 0.0001549313 4.8235433e-05 -1.6694385e-05
8.520002e-05 3.5853296e-05 -3.207253e-05 2.047691e-07 -0.00023368465 -6.643898e-05 6.1516446e-05 -5.191692e-05
0.023414487 0.028345894 0.0003106686 -0.006475538 -0.0224953 0.002438047 -0.0032284316 -0.018225309
0.047463395 -0.043776564 0.005885836 -0.01778831 0.0023386683 0.027841913 0.012812022 0.029173668
-0.0029287015 -0.029799087 -0.018920666 -0.004301757 -0.0031340856 0.022503335 -0.0074908617 -0.043837205
-0.037277117 -0.030145284 0.012559 -0.009539262 0.00012041096 0.008635756 -0.023203932 0.027523464

attn.out_proj.weight f4 [32, 32]
00000000: f218 e1bc 387c 1ebe 9b7a efbc 46f9 b8bc
00000010: 23ff 283d f0c1 83bd 6e67 56bd 3cad 1e3e
00000020: cf9e c73d 8a79 c43c dd10 463d 11d7 053d
00000030: 060b e63d 30fa ef3d 1ded c03d a7bb bd3d
00000040: 961f 27be fb56 2dbe e661 0abe 011a 8dbc
00000050: 608b c73d 0d38 413e aa0f 143c 83b5 c9b9
00000060: 8df5 f2bd 2eed 43bd 5c98 0b3e 293d c1bd
00000070: 2bd1 3f3e 55d4 92bd 7b03 8fbd dd3b 1c3e
00000080: 7609 283d 48e0 1e3e 8bed debd b892 88bd
00000090: 83ef f0bc b6c2 273e 4950 63bd 7dee 96bc
000000a0: ffd6 b73d 5fb6 f2bd 9458 b8bc 9417 a8bc
000000b0: 1d13 f13d 717a 593d 5479 9d3d 04f2 2f3e
000000c0: c33d d93d 0fd6 be3d 1f9b a33d 2f96 b13d
000000d0: 6633 2b3a 06c0 d43d b601 e5bd c501 1abe
000000e0: e392 26be 0632 a6bd 6f95 e5bd 37f9 dc3d
000000f0: c4b8 323e facc ca3c ccfd 783d 34a9 e83d
00000100: c4b6 313e fcd1 0f3e 873d 9abd 715b 30be
00000110: 885a eb3d d339 b93c b9f3 873d 0e2e 95bb
00000120: 314b 25be 314e 353e 6ac7 e2bd cbe7 c4bd
00000130: 96d7 0d3e 877d f4bd 5242 aa3d ba4a 9fbd
00000140: 3118 c43c acc3 313e 41f6 c6bb 3317 f53d
00000150: 4c5a 233c 7eea 6abd 8997 e23d 75dd db3d
00000160: 535e d53d 47e7 c73c 0e96 bebd 6bba 5a3b
00000170: d707 da3d ce80 4bbd 89f2 62bd 8436 e7bd
00000180: 40d7 4d3d a83a 383e 731b 3fbe 92d6 fb3d
00000190: 705c 3a3b bf74 2cbe b587 51be 3d43 b3bd
000001a0: dd71 e13c fa53 723d c26b c2bd f4ea 25be
000001b0: 9390 a63d 0031 f7bd 714e c8bd 0863 e5bb
000001c0: 8b32 173c 21f3 ecbd 4330 49bd 9747 873d
000001d0: eaf3 a7bd 149f 093e 1824 8fbd afc6 93bd
000001e0: e432 eebc 6351 79bd 6d92 f63d a019 903d
000001f0: aa9b 6ebb 35dd 883d 45c8 11bb 9405 d4bc
00000200: 0823 c9bd 050b e93c 0582 8b3d e937 bd3d
00000210: 353d 3b3d 54cf 023d e310 3c3c a801 85bd
00000220: d90e d9bd 5231 a2bd 33ce 163d 3baf 7f3b
00000230: 7274 eabd 2be6 e0bd c35f e03d 9800 b7bd
00000240: be16 97bd 747b 1b3e 58b0 043e a736 1abe
00000250: 03be 27bd 61dc e73d 626d f23b c87b bc3d
00000260: 23f4 653d 95b6 2a3d e826 68bd 5108 b4bd
00000270: bebf 6c3d 7b0c a53d f369 19be faa1 25be
00000280: b9f6 4ebe 347d 1d3d 659e c4bd 184e 643d
00000290: c4fe 2abd a70b 993d b055 c9bd 2ebc 253e
000002a0: 08f8 02be 4192 f5bc 63a6 ef3c ec63 9cbd
000002b0: 031e 90bd 0d63 c73c 65ee c6bd 3e3f 90bd
000002c0: e1ec 5a3e ca05 71bd 16ab 243e e48e a13d
000002d0: 0a88 e33d 8630 793a ea9e 2ebd c783 8c3d
000002e0: cc5a 093e 0d9b 093e 03d2 8a3c fb52 21bd
000002f0: 5180 953d 8a55 2ebe 2888 24bd 703d 163e
00000300: 0d4f 85bc 8b35 43be 9462 0c3e a232 8fbc
00000310: 913d 1e3e 1cec 333d d155 d63c 5b49 0b3e
00000320: 6cc4 04be e169 573c c662 60bd f46b 133e
00000330: d495 a23d f0aa 27be 64b7 143d 0025 12be
00000340: b672 123e 096b 4fbd b676 91bd bef8 0dbe
00000350: 10d7 293e 71e6 0ebe fca2 60bd 326b 033e
00000360: 4242 2b3d 1ad4 f4bd 5dac b2bc 9e5c 0abe
00000370: b8ac cbbb 0dc5 573d 6337 ddbd 6dff c83d
00000380: 2c94 babd 9a8a 16be e124 ea3d 57ca 0cbd
00000390: 04da 033d 33c1 873d 5102 213e a9a8 0e3e
000003a0: 4544 103d 5bbb 2dbc 3e5b babd a075 23be
000003b0: f0e3 cabd 548a 823c ecf9 853d f741 06bd
000003c0: 719a 3eb9 bf01 88bc b6db b4bd 3225 413d
000003d0: 9ec1 153e b96d e53d ae6c 7cbd 9cf1 7abd
000003e0: d0e9 5ebd 1fa5 b8bc 4a1d 9ebd c117 18be
000003f0: 9f92 23be f3b6 d63d a566 a9bd dc34 40be
-0.027477715 -0.15477073 -0.029233268 -0.0225798 0.041258942 -0.06433475 -0.052344732 0.15495771
0.09747087 0.023983736 0.048355926 0.032675806 0.11232571 0.11717641 0.09420226 0.092643075
-0.16320643 -0.16927712 -0.13513908 -0.017224314 0.097433805 0.18869038 0.009036938 -0.00038472944
-0.11863241 -0.047833614 0.13632339 -0.094354935 0.18732135 -0.07169405 -0.06983086 0.15257211
0.041024648 0.15515244 -0.108851515 -0.066686094 -0.029411083 0.1638287 -0.055496488 -0.018424267
0.08976554 -0.11851191 -0.022503175 -0.020519055 0.11771224 0.053095285 0.07689157 0.17182165
0.10607483 0.09318172 0.079885714 0.08671223 0.0006530791 0.10388188 -0.11181967 -0.15039738
-0.1626697 -0.0811501 -0.11210143 0.107897215 0.17453295 0.024755944 0.060788915 0.11360398
0.17354876 0.14044946 -0.07531267 -0.17222382 0.11491877 0.02261058 0.06638283 -0.0045526093
-0.16141964 0.17705609 -0.110731915 -0.096145235 0.13851771 -0.11938005 0.08313431 -0.07777925
0.023937317 0.17359799 -0.006071836 0.119673155 0.009970259 -0.057352535 0.11064059 0.10735599
0.104183815 0.024402274 -0.093059644 0.0033375274 0.106460266 -0.049683385 -0.05540708 -0.11289695
0.050254107 0.17991126 -0.18662815 0.122967854 0.0028436445 -0.1684141 -0.20461924 -0.08753059
0.027520115 0.059162118 -0.094932094 -0.16202909 0.08133044 -0.12069893 -0.097805865 -0.007000331
0.009228359 -0.11569811 -0.04911829 0.066054516 -0.0820082 0.1343959 -0.06989306 -0.0721563
-0.029077 -0.060868632 0.12039647 0.070361376 -0.00364087 0.06682817 -0.0022244614 -0.025881566
-0.09821135 0.028447637 0.06811909 0.0923918 0.04571267 0.031936005 0.0114786355 -0.064944565
-0.10598535 -0.07919563 0.03681774 0.0039014358 -0.114479914 -0.10981401 0.10955765 -0.0893566
-0.073773846 0.15183812 0.12957895 -0.1505991 -0.040952694 0.11321331 0.0073982934 0.09203297
0.05614103 0.04167803 -0.05667773 -0.08790649 0.057800047 0.08059021 -0.14981823 -0.1617507
-0.20211305 0.03844948 -0.09600524 0.05573854 -0.04174687 0.07472926 -0.09830797 0.16185066
-0.12789929 -0.029976966 0.029254144 -0.07636246 -0.07036974 0.024339223 -0.09713439 -0.070433125
0.21379425 -0.05884341 0.16080889 0.07888582 0.11109932 0.0009505827 -0.04263202 0.06861072
0.13413543 0.13438053 0.016945845 -0.039385777 0.07299865 -0.17024818 -0.04016891 0.14671874
-0.016273046 -0.19063394 0.1370948 -0.017480198 0.15453173 0.043926343 0.026163967 0.13602202
-0.12965554 0.013147802 -0.054781698 0.1439665 0.07938734 -0.16373801 0.036307707 -0.14271927
0.14301571 -0.050639186 -0.071027204 -0.13864419 0.16585946 -0.13955094 -0.054842934 0.1283386
0.041811235 -0.11954518 -0.021810705 -0.13511893 -0.006215658 0.052678157 -0.1080158 0.098143436
-0.09110293 -0.1470131 0.11432815 -0.034372654 0.032190338 0.06628647 0.1572354 0.13931526
0.035221357 -0.010603751 -0.09099434 -0.15962839 -0.09906757 0.0159351 0.065418094 -0.032777753
-0.00018177346 -0.016602395 -0.08830969 0.047154613 0.1462464 0.112025686 -0.061627083 -0.061265573
-0.0544222 -0.022539673 -0.0772043 -0.14852811 -0.159739 0.104841135 -0.08271531 -0.18770164

attn.out_proj.bias f4 [32]
00000000: 3512 2b3d 513d 593d 6f57 0dbd b184 a43c
00000010: 9fc7 913c 6006 ccbb 4b31 a43b 01e1 e7bc
00000020: b8d9 45bd c2eb 443b 4417 e3bb 29cd 1c3b
00000030: 99ce c1bc a91c 1abb e0a6 cb3b d3ee 4fbc
00000040: bc9e 97bc 7def 903b 4d58 92bc 33f6 023d
00000050: 8cad 1a3b da01 85bc e2dd 493d bc39 01bb
00000060: 3a0b 50bd 560c 6b3d af38 2f3c 2d20 eeba
00000070: 37e2 29bb e714 96bc cd72 25bc 7b04 423d
0.04176541 0.05303699 -0.03450721 0.020082803 0.017795382 -0.006226346 0.005010759 -0.028305532
-0.048303336 0.003004775 -0.0069302637 0.0023925996 -0.023658084 -0.0023515618 0.0062149614 -0.0126912175
-0.018508308 0.0044230805 -0.01786437 0.031973075 0.0023601977 -0.016236234 0.04928387 -0.001971825
-0.050791956 0.05738481 0.010694667 -0.0018167548 -0.0025922188 -0.018320514 -0.010098171 0.047367554

norm.weight f4 [32]
00000000: 2198 7b3f a3b1 673f 8f54 663f b3e8 6a3f
00000010: 7176 793f 7d4e 733f 063b 723f 8ca6 663f
00000020: 313c 6b3f 24e1 5c3f 6c13 6f3f 0673 783f
00000030: dc97 813f 2192 753f 28b5 6b3f 109c 703f
00000040: a02a 783f ffea 673f 7042 6c3f ce02 813f
00000050: e04f 743f b0c4 753f 16b4 7e3f 4719 643f
00000060: ca12 603f b585 713f 5ea1 763f 7976 6d3f
00000070: a3ce 603f 4413 723f 4af8 7a3f 9faa 653f
0.98279005 0.9050543 0.89972776 0.9176132 0.9744635 0.9504164 0.9462131 0.9009788
0.9188872 0.8628104 0.9338901 0.9705051 1.0124469 0.959261 0.920733 0.9398813
0.9694004 0.9059295 0.92288876 1.0078981 0.9543438 0.96003246 0.9949354 0.8910107
0.8752867 0.94344646 0.96339977 0.927589 0.878153 0.94560647 0.9803511 0.8971347

norm.bias f4 [32]
00000000: 862d 1d3d e8ab e93c f195 06bc 8e72 9e3b
00000010: 9724 d53c 7be7 b33c e9c0 c03b daea a7bc
00000020: 8653 5cbd 9f17 34bb d1df b33b 620d 9dbc
00000030: 9790 c6bc 0977 b1ba 9fc2 563c 05a4 80bb
00000040: d479 0bbc 8597 92bc e1ca 13bc 5c04 b43c
00000050: d2ae 10bd 3990 3cbc 268b 0a3d 9be0 8b3b
00000060: 5b1c 4cbd ba19 b53c 35fc 09bc ccc4 2abc
00000070: 7148 9f3b 92a5 a3bc ffe8 12bd ae2a 083d
0.038373493 0.028524354 -0.00821446 0.0048354333 0.026018424 0.021960964 0.0058823717 -0.020497728
-0.05379059 -0.00274799 0.0054893275 -0.01917142 -0.024238868 -0.0013539504 0.013107925 -0.0039258027
-0.008512933 -0.017894516 -0.009020538 0.021974735 -0.03532297 -0.011508995 0.03382411 0.0042687184
-0.04983173 0.022106994 -0.008421947 -0.010422897 0.0048609306 -0.019976411 -0.035866734 0.033243828

classifier.0.weight f4 [128, 320]
00000000: 2500 6ebd 1910 a53b 0abe b2bc 7c54 01bd
00000010: 06b6 89bc 4641 13bc ef7f 113c 3874 86bd
00000020: bfcc debc a95a 3b3d b84d 733d 935b 433c
00000030: 5c72 f5bc a5be 683d cc6b 97bc a12b 113e
00000040: eebc 89bc e29e 163d 3c86 2e3d 71e5 2fbd
00000050: fd5c f4bc 9995 603d 2e56 083d 046e a3bd
00000060: 1fde 173b 82c7 963d ac50 3a3c 2a16 99bc
00000070: 79dc c73c a83c e538 c8fa 993c 230e 983b
00000080: c49d 51bc 921d 3cbd adf8 81bd 42ec d0bc
00000090: 0dfa 783d bacb 3bbd b7ef 503d 3e65 533d
000000a0: 9767 6a3d 7cbf a7bc aca0 b73b 8b62 4abd
000000b0: 6e6b 8fbd b52c c7bc 4d17 21bc 7705 d53c
000000c0: 87c8 05bc 25b6 c9bd cd4e 933c 0808 3b3d
000000d0: 4800 eb3c db14 29bd 5877 d43d f7b6 873c
000000e0: 11fb 733d 10eb 833b a8b2 2c3d 4a8f 603d
000000f0: 62ab 62bb fc40 a9bc 3fc5 50bc 833d 41bd
00000100: b2fa 10bd 0416 62bc cc44 f73c da6d 2b3d
00000110: 3aac ac3c 92b3 6cbd 8980 3a3d 7b75 d2bc
00000120: 6b2b 2bbc 740d 7ebd 23d0 3bbd 0fb7 863d
00000130: 172e 87bc a43a e8bb 1841 453d b770 8ebd
00000140: 972b e4bb 3770 80bd d799 ef3d bc28 74bc
00000150: e2d7 993a cf51 11bd a46e 343d 23c0 7d3c
00000160: 100e 82bb 7356 523c e2f2 45b9 2a2b 97bd
00000170: c36b 1b3c c606 273c 37d5 dd3b a759 e7bc
00000180: 67f8 a63d 81f0 163d 4e41 9bbd 25dd 143b
00000190: 115f 26bd b693 e53c 7c81 393c e522 c03c
000001a0: 7fdb 813d 2d27 9b3c 7509 43bd b03f 273d
000001b0: 5d6b b2bd f787 a33c 849a 2f3b 40a5 953c
000001c0: bee8 f03d 7a1e 92bd 176b c0bd 6c7d fe3c
000001d0: 748f c13c 367c 92bd 9614 d03c 20f9 b0bd
000001e0: e7bd 85bb fc4a b63b eec4 ecbc 8768 5e3d
000001f0: 9806 b1bd aad1 27bd ef81 04bc 6f9f 39bd
00000200: fff2 7d3d 8bbd e0bc d23f 463d 4f2d 9c3d
00000210: a8a9 9ebd 5e02 d4bd a8da 9f3d e64b 99bb
00000220: c34b 21bd 4e92 11bc d1ee b0bd be14 7dbd
00000230: 4f08 e7bc b2b6 e83d 6c41 07bd 5450 35bd
00000240: 777e a73d 61bb 74bd c315 603d 6802 9c3c
00000250: 2138 a9bc 63ac abbd c2fb dabc 6bee b3bc
00000260: b1c6 c7bd 4c40 22bd 9f51 5fbd d3d7 8abc
00000270: 0a7a 8c3b 927f 0d3b 6cea 6cbd 6957 233c
00000280: 766a fd3c cdbf 17bd 0b2d 43bd 04f7 403d
00000290: b4c4 ad3d 986b 613d 612b 4fbb 4177 c13d
000002a0: 0d60 b53c 6c23 dabc 49e5 b03d 97a3 86bd
000002b0: 0e94 283d cb1f 5d3d 65e1 1f3c 2d75 00bc
000002c0: e5f7 d9bb c182 76bd 542f 343c 29d3 0a3d
000002d0: b27c 35bc 1e09 afbc 2def c3bc 2223 7abb
000002e0: 0289 13bd a32b ca3c 9d3f 4d3d c62c 3d3b
000002f0: 2578 18bd 5bb1 97bb 0d2e 00bb ee95 a4bd
00000300: 99f5 0abb 6df9 0bbd 3f7d abbb 02e7 743d
00000310: 70f0 98bc 4d14 08bd ff4c aebd ca39 a3bd
00000320: 3acc d9bd 0c37 7d3d 5e9d 88bc de2a 173c
00000330: f3d6 1b3c 0b9e d83b 4df5 453c 3f43 44bd
00000340: 06be 2c3d 1d41 d63c d04e 08ba 30b6 133d
00000350: df61 b73d f3e0 573c ab10 92bc 1ba2 75bd
00000360: 6a5a 383d ccda ce3a 600d af3d 792a 813c
00000370: 7064 633d c27c a0bd 6cab f0bb 5a31 8a3d
00000380: f6ea 723b b0ac 023e f324 8abd 3425 8b3d
00000390: 7bec 3cba 3375 84bd 7b69 d53d 749a 6e3d
000003a0: 63fc 9bbd 9838 59bb 9ff0 5c3d a458 553c
000003b0: 0277 29bd 1b6d 873d 0cad 073d 62f3 87bd
000003c0: 1116 9abd 9473 303c e74d b03d ad48 9bbd
000003d0: 5f72 9dbc 7508 0a37 86fd 21ba 3777 15bc
000003e0: 167f 78bd e879 afbc 4e7d 693d 35df 283c
000003f0: abd2 16bc 4014 6fbd efaf 083d 4f52 0d3c
-0.058105607 0.0050373194 -0.021819133 -0.03157471 -0.016810428 -0.00898773 0.008880599 -0.06565136
-0.02719724 0.045740757 0.05940029 0.011923688 -0.029961757 0.056822438 -0.018484019 0.141768
-0.016813722 0.036772616 0.042608485 -0.04294342 -0.029829497 0.054830167 0.033285312 -0.07979968
0.0023173166 0.07362272 0.011371773 -0.018687326 0.024397122 0.00010930869 0.01879634 0.004640357
-0.012793962 -0.045926638 -0.06346259 -0.025503282 0.060785342 -0.045848586 0.05100986 0.051610224
0.057227697 -0.020477049 0.0056038704 -0.049410384 -0.070029125 -0.02431331 -0.0098322155 0.026003582
-0.008165485 -0.098491944 0.017981911 0.045661956 0.028686658 -0.041279655 0.103743255 0.016566737
0.059565607 0.0040258244 0.042162567 0.05482415 -0.0034587015 -0.02066087 -0.01274234 -0.047177803
-0.03539533 -0.013799194 0.030184172 0.04185281 0.021078218 -0.05778844 0.045532737 -0.025690785
-0.010447363 -0.06202455 -0.04585279 0.065778844 -0.01650147 -0.0070870686 0.04815778 -0.069550924
-0.006963204 -0.06271403 0.116992645 -0.01490229 0.0011737312 -0.03547841 0.044050828 0.0154877035
-0.0039689615 0.012837994 -0.00018877865 -0.0738128 0.009486142 0.010194486 0.006769802 -0.028240992
0.08152848 0.036850456 -0.07580815 0.002271482 -0.040618006 0.028024536 0.011322375 0.023454139
0.06340694 0.018939579 -0.04761644 0.04083222 -0.08711884 0.019962294 0.002679498 0.018267274
0.11763142 -0.07134719 -0.09395426 0.031065665 0.023627974 -0.071525976 0.025400441 -0.08641267
-0.004081476 0.005563138 -0.028902497 0.054298904 -0.08643836 -0.040971436 -0.008087619 -0.045318063
0.061999317 -0.027434131 0.048400708 0.076258294 -0.07747203 -0.10352014 0.07805377 -0.0046782373
-0.039378893 -0.008884979 -0.086393006 -0.06178736 -0.028202204 0.11362971 -0.033021376 -0.04426606
0.08178418 -0.05974901 0.054708254 0.019044116 -0.020656647 -0.083824895 -0.026731376 -0.021964272
-0.09754694 -0.0396121 -0.0545212 -0.016948616 0.004287009 0.002159093 -0.05784075 0.009969571
0.030934554 -0.03704815 -0.04765038 0.047110572 0.08484784 0.05503425 -0.003161155 0.09446574
0.022140527 -0.026628219 0.08637483 -0.06574171 0.04115682 0.0539854 0.009758328 -0.007840437
-0.006651866 -0.06018329 0.010997612 0.033892784 -0.011077093 -0.021366652 -0.023917759 -0.0038167913
-0.036019333 0.02467901 0.050109494 0.0028865798 -0.037223954 -0.0046292967 -0.0019558698 -0.08036409
-0.0021203517 -0.034173418 -0.0052334364 0.05979062 -0.018669337 -0.033222485 -0.085107796 -0.07970007
-0.10634656 0.061820075 -0.016676601 0.009226529 0.009511697 0.006610637 0.01208241 -0.047915693
0.042173408 0.026154095 -0.0005199732 0.03606242 0.08954214 0.013176191 -0.017830214 -0.05996905
0.0450081 0.0015781759 0.08547473 0.015767323 0.055515707 -0.07836296 -0.007344654 0.06747694
0.0037066317 0.12761188 -0.06745329 0.06794205 -0.0007206869 -0.064676665 0.104205094 0.058252767
-0.07616498 -0.0033145305 0.05394041 0.013021622 -0.04137326 0.06612607 0.033124015 -0.066382185
-0.0752374 0.0107697435 0.08608609 -0.07582221 -0.019219575 8.22741e-06 -0.00061794405 -0.009122661
-0.060668074 -0.021420434 0.057004265 0.010307123 -0.009205501 -0.05836892 0.03337091 0.008625581

classifier.0.bias f4 [128]
00000000: 7469 213d 7a0b 7dbd 8142 88bd 8eeb 223a
00000010: 7999 353b 56ae 03bc fd85 64bd b852 7dbd
00000020: 970e 4ebc e849 ae3c eee7 4fbd 4062 d9bc
00000030: 1a7c abbd 6270 6ebc 9c7f 7cbd 57f0 f43c
00000040: 5c14 98bd 4955 62bd 2ed3 1fbc 0fab 30bc
00000050: 5d94 ecb9 e44d 39bd 23a2 87bd 95ff 88bd
00000060: db5d 3d3b 2aba 073d a4d1 0cbd f9a9 0ebd
00000070: d262 2abd 689b e93b 858d d2bc f50d 0e3d
00000080: 5518 963c dc52 983c 1743 9fbc eb98 47bc
00000090: 01c6 9bbd a2db 70bd dc59 a4bc a55d 3cbb
000000a0: 6c96 9cbc 8078 2c3d cf87 a1bb 4b72 bd3b
000000b0: e5f1 b23c 0ead 57bd f5a6 15bd cd9f acbc
000000c0: 2655 a1bc 1e6c a9bd 0d01 3cbd 5f15 05be
000000d0: 404b 18bd 34a7 d6bd c785 a4bd b680 033d
000000e0: 3c55 b9bd c7d9 54bd b3e8 d0bd 1cd7 53bd
000000f0: 71cc eebc 1e88 873b c555 2bbc 2330 b2bd
00000100: 63fc 9abc 9459 18bc d239 93bd f10a 02bc
00000110: 7832 37bc 9079 d838 7287 4cbd e451 8fbd
00000120: 65c5 c9bb 205d ac3b 9929 953d ac19 a0bc
00000130: fe15 b5bc 9a98 74bd 2eed 153d 33e5 fcbb
00000140: 9884 0abd c62b 2ebd 7c60 d83c 28fc 26bd
00000150: 5341 75bc a1f7 b4bd 0c91 f23c b2ff b3bd
00000160: 7036 96bc b100 3bbd b08b 6bbd 5ad1 cdbd
00000170: c7c7 9cbd 84d2 1dbd e18f 2dbd 1923 0f3d
00000180: 7206 00be 3efc 69bd 75d7 96bd 6310 bd3c
00000190: 4f13 7fbd 744e 2fbd ab18 1cbb 2047 84bd
000001a0: e4be 243d 204b b0bb 118f 67ba fac1 883c
000001b0: df33 62ba f3cb 0abc 23b8 e13c e669 b0bc
000001c0: 2be2 0bbd cde0 e73c c140 b1bd 2672 ffbc
000001d0: 4362 823d 95c7 21bd 5b45 82bd a383 97bd
000001e0: 826f 4fbd 0928 e9bc 5902 a1bd 3aa4 4cbc
000001f0: dedc d8bc 296e b9bb 3afd 3dbd 0e9a 15bd
0.03940721 -0.061778523 -0.066533096 0.000621491 0.0027709885 -0.00803717 -0.055791844 -0.061846465
-0.012576721 0.021275476 -0.050758295 -0.026536107 -0.0837328 -0.014553161 -0.061645135 0.02989976
-0.07425758 -0.055257116 -0.009754939 -0.010782971 -0.00045123967 -0.045240298 -0.06622722 -0.066893734
0.0028895054 0.033136524 -0.034379616 -0.034830067 -0.04159815 0.0071291216 -0.025702247 0.03468128
0.01832215 0.018594198 -0.01944117 -0.012182455 -0.076061256 -0.05880321 -0.02006238 -0.002874234
-0.019114695 0.042107105 -0.0049295197 0.005781447 0.02184386 -0.052655272 -0.036536176 -0.021072293
-0.019693922 -0.08272575 -0.04589944 -0.12996434 -0.03718114 -0.1048111 -0.080333285 0.03210517
-0.0904946 -0.0519655 -0.10200634 -0.051718816 -0.02915022 0.0041360995 -0.010457461 -0.087005876
-0.018919175 -0.009298701 -0.07188763 -0.007937179 -0.011181466 0.000103223254 -0.04993386 -0.06998041
-0.0061575645 0.005260125 0.07283325 -0.019543491 -0.022105213 -0.059715845 0.036603145 -0.0077177524
-0.033817858 -0.042522214 0.026413195 -0.04076782 -0.014969188 -0.08836294 0.02961018 -0.087890044
-0.018336505 -0.045654956 -0.057506263 -0.10049696 -0.07655292 -0.03853084 -0.04237354 0.03494558
-0.12502459 -0.057125323 -0.07365314 0.023079103 -0.062274273 -0.042799428 -0.0023818414 -0.064588785
0.04022111 -0.0053800493 -0.0008833269 0.016694058 -0.0008628945 -0.008471477 0.027553624 -0.021534871
-0.034151237 0.028305436 -0.08654929 -0.03118236 0.06366398 -0.039496977 -0.06360885 -0.073981546
-0.05064345 -0.028461473 -0.07861776 -0.012490327 -0.026472505 -0.005658884 -0.046384074 -0.03652387

classifier.3.weight f4 [256, 128]
00000000: c8e4 9dbc 6b65 6dbd be40 97bd b554 90bd
00000010: 7b48 56bd e3f5 dcbd 8ab9 5d3c 57ab 18bd
00000020: 6ca6 203c 2660 4abc f40e 67bd 69e2 a2bd
00000030: 569f 053c 4f11 423c c01c 3c3c 7f95 d2bc
00000040: 438c a0bd f6b8 0fba 0cd5 663d 1d6c 2bbd
00000050: 282d b3bd e8e1 f03c c844 47bd cf38 02bd
00000060: ecb3 6d3d a2c1 d13b a092 da3c 1e23 763d
00000070: c7c7 20bd b0e7 a7bd 17aa 5fbd a437 093c
00000080: 6daa 91bd e6fc 96bd cac0 9abd 0054 95bd
00000090: 2bed 643d d81f eabc bdee 92bd 61ff ebbb
000000a0: 08da 653b 95d0 c8bd 6b4f 84bd b459 39bd
000000b0: 4b01 63bd b27c e43c 4c6d 953c 8d2f 03bd
000000c0: 2883 683d d512 1e3c ddb5 353d d01a b4bd
000000d0: 0d3a 81bd 2d54 e3bd 2470 823c ecb3 b7bd
000000e0: 80a8 c1bb 801a 80bd b8d2 ccbd 65c0 ed3b
000000f0: 4366 8ebd 65ee 953d fa2c 71bc f9fb 2c3d
00000100: f323 05bd e59a 193d 0540 9cbd 9faa b63c
00000110: 380a 8cbd 12fb dfbc df3b 4a3d d3a9 9e3d
00000120: 3a56 2abd bdaa 68bc b51e 98bd 88ea 1cbd
00000130: 2400 e03c f56c 22bd 9075 92bd b9b6 3cbc
00000140: 32f5 90bc 3fef bdbc 204c 99bc 2688 043c
00000150: 811d dbbd 3ffa d83b 3ae8 c93b afca 1ebc
00000160: 7963 24bd 707e 0e3d 0699 84bd 5297 763c
00000170: b399 1cbd d56a 96bd e239 373b 247f 9ebd
00000180: db00 4dbd a340 f13c b15a 4e3b 5ded c9bc
00000190: 4e62 45bd fb19 48bd 4da9 313d dad9 53bb
000001a0: 7dc9 babd c1a2 243d d79d a7bc ad85 633d
000001b0: 4551 d43c 696f 97bd b01e ae3c efea afbc
000001c0: 6727 c4bb 2919 09bd e541 873d 31a2 663d
000001d0: 4db1 0a3d cebc 44bd 0b8c 35bd d32e 7e3d
000001e0: a2b4 c03c 26b2 4b3d 1ee0 2dbd d19d d3bd
000001f0: df30 dbbd 2132 a3bc 9878 61bd b186 c13c
00000200: fdee f9bc 0f1c a33c 08ee 0e3d fd4a 93bd
00000210: beee 7c3d 1def 65bd 406d 193d 60a8 2ebd
00000220: ef9c 3e3d d046 b53c 9ddd ab3d 10e4 8dbd
00000230: 7721 bbbc dc80 b7bc 9dc7 9dbd 1817 a2bc
00000240: 3580 a43d 8cd1 35bd 2877 b83c 66a9 7fbd
00000250: f68c e0bd 43ef 953c 31a1 34bd 8949 333d
00000260: 79ce aa3c 5ac9 f13c 1f84 e73c 0961 83bd
00000270: fdd2 b9bd 44f4 eabc 1650 4f3d 2eac 293c
00000280: eb05 133d 6b4b 91bd c61c 613d 631a bdbd
00000290: c515 19bd 839f aabd cfa5 883d 15d4 eb3b
000002a0: d864 abbd 2f81 03bd 9bed 5d3c 2340 58bc
000002b0: d023 a3bd 80c7 83bd 0c64 873c 65da 433d
000002c0: a7c5 863c 68a5 46bd 2d64 763d 4af1 5e3d
000002d0: 83ec 103d 024e 303d 5eeb bbbd 2162 0f3d
000002e0: 8353 a83b d0af 0bbd 31a5 3c3d cfce b0bd
000002f0: f1b1 8a3d 6597 55bd d774 7bbd 0f0f b3bc
00000300: 9eff 943d b924 7a3d 3fe0 28bd b5af 24bd
00000310: 2922 623c dd73 1e3d 632e 983c 9f1c 843c
00000320: 20e2 05bd 9190 acbb 3bda 51bd 05c1 9cbd
00000330: 5a43 9b3c c1ff c0bc 57fb 303d 5f3d 923b
00000340: 96e7 1e3d dde0 18bd 9229 5b3d 2c61 8a3d
00000350: 41eb c7bd a286 4ebd 51e7 ed3b 7be5 91bd
00000360: 1f8a 343d c8e1 4b3d 9048 d73c 63ff 32bd
00000370: dc9f ebbc ddce b2bd af93 053c b2b4 1a3d
00000380: 1d6a 913d 8b02 a4bd c1a4 26bd 8203 0b3d
00000390: 3e38 efbc 31e7 453d 1b0e 243d a1e5 ed3c
000003a0: 5ea2 143c 2c43 38bd ede0 73bd 2371 3dbb
000003b0: 3c2d 41bd f441 b4bb 0988 c8bd 2894 153d
000003c0: dcaa 9bbd 10c5 a8bc 2787 9c3d 96d6 333b
000003d0: 7ad8 99bd 0b0d 9abd 4c4e 7c3d e88c dbbd
000003e0: 030e c9bd e93b 2f3c 6847 483d 18ac 87bd
000003f0: 3a42 1c3d a1db 08bc 97cd 4abb d7be 15bd
-0.01927413 -0.057958048 -0.073853955 -0.070474066 -0.052315217 -0.10789087 0.0135330055 -0.037272777
0.009805303 -0.012352025 -0.056410745 -0.079533406 0.008155664 0.011844947 0.011481464 -0.02570605
-0.07839253 -0.00054825784 0.05635552 -0.04185115 -0.08748847 0.029404595 -0.04864958 -0.03179246
0.058032915 0.0064012567 0.026681244 0.060092084 -0.039253023 -0.08198488 -0.05460557 0.008375082
-0.07112584 -0.07372455 -0.07556303 -0.07291412 0.055890244 -0.028579637 -0.07174442 -0.0072020744
0.0035072584 -0.09805409 -0.0646046 -0.045251563 -0.055421155 0.02789149 0.018240593 -0.03202777
0.056765705 0.009648045 0.04436289 -0.087941766 -0.063099004 -0.1110004 0.015922613 -0.08969864
-0.0059099793 -0.062550545 -0.10001129 0.007255601 -0.069530986 0.07320861 -0.014720196 0.042232487
-0.032504987 0.037501235 -0.07629398 0.022298155 -0.068378866 -0.0273414 0.049373504 0.07747235
-0.04158614 -0.014200863 -0.07427732 -0.038309604 0.027343817 -0.03965469 -0.071513295 -0.011518174
-0.017695043 -0.02318537 -0.018713057 0.008089101 -0.10698987 0.0066216285 0.0061617168 -0.009691878
-0.040133927 0.03478855 -0.064744994 0.015050726 -0.038232516 -0.07344595 0.0027958085 -0.07739094
-0.050049644 0.029449767 0.0031487162 -0.024649316 -0.048189454 -0.048852902 0.04337435 -0.0032325895
-0.09120462 0.040194277 -0.020461006 0.055547405 0.025917659 -0.07394297 0.021254867 -0.02147433
-0.0059861424 -0.03347126 0.06604365 0.05630702 0.033860493 -0.04803162 -0.04432301 0.062056374
0.023523632 0.049730442 -0.042450063 -0.103328355 -0.10702681 -0.019921364 -0.055046648 0.023623796
-0.030509466 0.01991084 0.034894973 -0.07192037 0.06175112 -0.05613624 0.037457705 -0.042641044
0.046536382 0.022128493 0.08391879 -0.06928265 -0.022843106 -0.022400312 -0.07704089 -0.019786403
0.08032266 -0.044389293 0.022517756 -0.06241741 -0.10964386 0.018302565 -0.044099037 0.0437713
0.020850407 0.029514957 0.028261242 -0.06414992 -0.09073446 -0.028680928 0.050613485 0.010355992
0.035894316 -0.07094463 0.05495908 -0.092335485 -0.037374277 -0.08331206 0.066722505 0.007196913
-0.08368844 -0.03210562 0.013545419 -0.013198885 -0.07965815 -0.06434536 0.016527198 0.0478157
0.01645167 -0.048497587 0.06015413 0.05442933 0.035381805 0.043043144 -0.09175752 0.035005692
0.0051369085 -0.034103215 0.046055976 -0.086331956 0.06772221 -0.052146334 -0.061390724 -0.021857766
0.072753176 0.061070178 -0.041229483 -0.04020663 0.01380209 0.038684715 0.018576806 0.016126929
-0.032686353 -0.005266257 -0.05123351 -0.07654003 0.018953014 -0.023559453 0.043208446 0.0044628824
0.038795076 -0.03732382 0.05350644 0.06756815 -0.09761668 -0.050421365 0.007260241 -0.07123848
0.044077035 0.04977587 0.026279718 -0.043700587 -0.02876275 -0.08730862 0.008152886 0.03776998
0.071003176 -0.080082975 -0.040684465 0.033938892 -0.029201623 0.048316184 0.040052515 0.02904016
0.0090719145 -0.044985935 -0.059540678 -0.0028906546 -0.04716228 -0.0055010263 -0.09791572 0.036518246
-0.07600948 -0.02060178 0.07642966 0.0027441136 -0.07511993 -0.07522019 0.061598107 -0.10720235
-0.09817126 0.010695436 0.048896223 -0.06624621 0.038149096 -0.008353145 -0.0030945295 -0.036558952

classifier.3.bias f4 [256]
00000000: c8d6 cd3c 7eb7 92bd 9b34 3bbd 43a5 34bc
00000010: fe3a 0e3c 221b 9fbd 4e0a a4bd f86b 263d
00000020: 3006 8e3d 8460 033d e43a 5dbd b3de c3bc
00000030: 7660 bc3c d51c d3bc 9d56 a93c 35a6 c1bd
00000040: edea 0cbc 07ee b2bd 6d34 613b 161c b2bc
00000050: 4601 a3bd 0730 2dbd f85f fdbd 24c3 b4bc
00000060: cd8b 67bd 4936 a1bb 30ec e23c 99fa 033d
00000070: 08df 96bd 58d4 38bc 6eb9 37bd 6447 0cbd
00000080: 9615 49bc 22f2 9b3d 7933 dbbd dbfd 553d
00000090: 7fef e5bd e4d7 5d3d 9b52 873d ca4c 183d
000000a0: 0d12 fabc d4be 933b 223f a6bd e5eb 7a3d
000000b0: c5ff 24bc a24a 653b cc3c f8bc cf26 00bd
000000c0: 595c a0bd f860 dd3c 4d12 0f3d cc78 5abd
000000d0: 2b38 3dbc 34bd 8ebd c64c 11bc 5d51 05be
000000e0: 099d cebd f24e c1bd 96fa 80bd b918 c1bd
000000f0: 6c29 71ba d5e9 e23b 4e49 c03c 086a 65bd
00000100: dd54 43bd f67e 19bd 712b a1bd 1500 c0bd
00000110: b083 de3c af40 04bd c862 35bd 68f0 abbd
00000120: b0f1 22bc c5f5 d7bd f8e3 9b3c 509f 413c
00000130: a66b bf3b 3a25 1f3c 27a4 313d 7368 07bd
00000140: 36b3 69bd 8e95 8d3d 3a27 09bd 92e7 aabd
00000150: 8a9a 143d ae03 86bd f7e7 4c3c c18d c0bd
00000160: c0db 57bd 29ed fc3c 9221 7c3c 2690 6b3d
00000170: c22a 42bd 8d18 b9bb d19f 82bd 8692 803d
00000180: 3b3d d7bd 06a9 9dbd 29aa 9bbd b200 f4bd
00000190: 0d75 2cbd 029a b7bd bcf2 cfbd fa84 b8bc
000001a0: 6892 79bd a46b 54bd 2ad9 f43c 5011 073d
000001b0: 1a70 c63b be82 85bd 0a87 6ebd a591 99bc
000001c0: b376 8bbd 6b94 f1bd 01d0 78bd 0871 25bd
000001d0: efd9 4a3d f823 10bd 5b19 653b 20f4 2a3d
000001e0: 962e 31bd 779e 3b3d 5fa1 44bd ffef 193d
000001f0: 2517 e1bd bea8 5bbd 1db9 5c3d 983d 083c
00000200: 083e 15bc 7f63 88bd ecde c3bc ccd9 f8bd
00000210: 62a1 1a3d 4aca 7e3d 7f18 e13c 76e7 02bd
00000220: 0b2b 203c 5529 e0bb 725e 69bd fb51 163d
00000230: 9930 72bd 3010 01bd 052b 6dbc 89d2 ecbc
00000240: fbe4 5c3d 01f7 803c 3a5d b8bb d953 943d
00000250: d4d6 9cbc 7bfa d0bd e84e 61bd 7e53 c9bc
00000260: 5a68 49bd 43aa 8dbd 8d2a cabd 4974 8ebd
00000270: e844 d9bd 61b2 ab3c 1b92 bfbd 0458 86bc
00000280: ad98 cdba 183a d0bd 0798 823d a38f 52bd
00000290: b6d7 67bd 8094 9fbd 62d1 a9bc 99dd e3bc
000002a0: b00e 893d d787 37bd 3c4c 363c 7527 133d
000002b0: 874b 85bd 4bcc 90bd 4caa 8ebb c2af 083d
000002c0: b073 e9bb f61a 54bd d154 54bd d3b2 5c3c
000002d0: d4ad 533d 167b 533d 50de aabc 78c9 30bd
000002e0: 86d3 92bc a92b 653c 1d72 ccbd 8a07 91bd
000002f0: f068 3dbd 94af c2bc 67bb 913d df97 183d
00000300: 38fe 99bd 5715 26bb df86 523d f856 8fbd
00000310: 5060 14bd feac 8cbc bc24 363c 2274 f83c
00000320: 5301 ca3c 030f 803d f032 e5bc a1bd 93bd
00000330: cff1 d1bc 0e56 63bd 4446 a43c 2688 84bd
00000340: 7330 7ebd 9c15 503c 264a 553d 7fe5 37bd
00000350: 620a 45bc 45cc 89bd 3697 a13b cac1 81bd
00000360: c42f f63a 2b8b 453d 05fc 303c aa6e 703c
00000370: 13d7 5cbd 4bb4 2c3d cfe0 c4bd f0de 8bbc
00000380: 5272 d13c 6fa5 353c bb7f c1bd 7890 bd3c
00000390: 422b bfbd 4460 3fbd c9d2 02bd 6a71 56bb
000003a0: 6f9b 8fbc b2ac d1bd c0f2 263d c3d9 c7bd
000003b0: 4841 133d 24e8 b4bd 5900 4cbd c4c5 56bd
000003c0: aeee 3fbd 0d57 143d be9e e1bc 7b93 89bd
000003d0: 4459 333d 37b4 9fbd da3c e9bd 10f6 44bd
000003e0: efee 4bbd c492 c039 feed 183b bb95 fdbd
000003f0: 0d2b 1f3c 7099 863d 1f66 febb 6cb9 66bc
0.02512683 -0.071639046 -0.045704465 -0.01102573 0.008681057 -0.07768847 -0.08009778 0.04063031
0.06934774 0.032074466 -0.05401124 -0.023909902 0.022995215 -0.025770584 0.020671183 -0.094555296
-0.008600933 -0.08736806 0.0034363524 -0.021741908 -0.07959227 -0.04228213 -0.1237182 -0.022065707
-0.05652981 -0.0049198014 0.027700514 0.03222141 -0.073667586 -0.011281095 -0.044854574 -0.03424777
-0.012273213 0.076145425 -0.10703177 0.05224405 -0.11227321 0.054160967 0.066075526 0.037182607
-0.030526185 0.0045088325 -0.081175104 0.061260123 -0.010070746 0.0034987112 -0.030302428 -0.03128701
-0.07830114 0.027023777 0.034929562 -0.053337857 -0.011549036 -0.069696814 -0.008868402 -0.13019319
-0.10088546 -0.09438886 -0.062977955 -0.094285436 -0.0009199593 0.0069248476 0.023472454 -0.056009322
-0.047688354 -0.037474595 -0.07869614 -0.09375016 0.027162403 -0.03228825 -0.04428366 -0.08395463
-0.009945318 -0.10544924 0.019029602 0.011817768 0.00584169 0.009713465 0.04336944 -0.033058595
-0.057055674 0.06913291 -0.033484675 -0.0834495 0.036280192 -0.065436706 0.012506477 -0.094020374
-0.052699804 0.030874806 0.015388863 0.057510518 -0.04740406 -0.0056486786 -0.06378139 0.06277947
-0.10509726 -0.07698254 -0.07600815 -0.11914195 -0.042103816 -0.089649215 -0.1015372 -0.022524346
-0.06093064 -0.051860467 0.029888708 0.032975495 0.006055844 -0.06519078 -0.058234252 -0.018746207
-0.068097495 -0.117958866 -0.060745243 -0.040390998 0.049524244 -0.035190552 0.003495774 0.041736722
-0.04325732 0.04580542 -0.048005458 0.037582394 -0.109907426 -0.053627722 0.053887475 0.008315466
-0.009109028 -0.066596024 -0.023910008 -0.121509165 0.037751563 0.062204637 0.027477501 -0.03195902
0.009775887 -0.0068408647 -0.056974836 0.036699276 -0.059128378 -0.03150958 -0.014475589 -0.028908985
0.05392931 0.01574278 -0.005626348 0.07242555 -0.019145407 -0.10204025 -0.05500689 -0.024575945
-0.049171783 -0.069172405 -0.09871397 -0.069557734 -0.10608846 0.020959081 -0.09354039 -0.016399391
-0.001568576 -0.101673305 0.06376653 -0.051406514 -0.056602202 -0.07791996 -0.020729724 -0.027815627
0.066922545 -0.04480728 0.011126574 0.0359263 -0.06508546 -0.07070216 -0.004353797 0.03337074
-0.0071243867 -0.051783524 -0.0518387 0.013470369 0.051679447 0.051631056 -0.02085796 -0.043160886
-0.017923128 0.01398746 -0.09982703 -0.07081516 -0.046242654 -0.023765363 0.07115822 0.03725421
-0.075191915 -0.002534231 0.051398154 -0.0699901 -0.036224663 -0.017172333 0.011117157 0.030328814
0.024658835 0.06252863 -0.02797839 -0.07213903 -0.025627999 -0.05550199 0.020053037 -0.06471281
-0.062057924 0.012700465 0.052072667 -0.0448966 -0.012026401 -0.067284144 0.004931356 -0.063357905
0.0018782546 0.048228424 0.010802274 0.014674822 -0.05391605 0.04216413 -0.09613191 -0.017074078
0.025567207 0.011086806 -0.09448191 0.023140177 -0.09334423 -0.046722665 -0.0319393 -0.0032721409
-0.017530171 -0.10238017 0.04075885 -0.097583316 0.03595093 -0.0883334 -0.04980502 -0.052434698
-0.046858482 0.03621583 -0.027541514 -0.06717583 0.043786302 -0.07798045 -0.1138856 -0.048086226
-0.04978841 0.00036730443 0.0023335214 -0.123820744 0.009714854 0.06572235 -0.0077636386 -0.014082294
