champ_predictor.pt (torch, 314698 bytes, 10 tensors)

embedding.weight f4 [1000, 32]
000000 62 2a 12 bf 56 e2 8c bc 22 fd fd 3e f8 d5 79 3e
       -0.5709592 -0.01719777 0.49607188 0.24398029
000010 53 a2 31 3f 43 da 10 bf e9 be 9e 3f d8 0c f1 be
       0.6938831 -0.5658304 1.2402011 -0.47080112
000020 92 d5 81 3f 61 46 f7 bf 7d 4f ad bd 32 b3 c5 be
       1.0143301 -1.9318353 -0.08462427 -0.38613278
000030 fe d5 12 bf 06 98 9d 3e 2d 3e 94 3d 91 f2 90 bf
       -0.57357776 0.30780047 0.072384216 -1.1324025
000040 2b 8c 0d 3c fd 82 ad be bc f0 57 3f bd 34 b3 bd
       0.008639376 -0.33889 0.84351707 -0.087502934
000050 54 1d b3 be 65 fc a6 be df 58 70 bf 40 52 e3 3f
       -0.34983313 -0.32614437 -0.93885607 1.7759476
000060 96 73 36 40 fb 9a 83 be 38 38 fe 3f af 1b 66 bf
       2.8508048 -0.25704178 1.9860907 -0.8988599
000070 4c c5 01 40 d2 b3 b1 be 5d f8 1d be f8 df 21 c0
       2.027667 -0.34707505 -0.15426774 -2.529295
000080 2c 4d f6 be 2e f0 61 3f 14 0a 0d 3f a0 b5 5a bf
       -0.48105752 0.8825711 0.55093503 -0.8543339
000090 88 87 ab 3d e7 42 24 bf 21 b0 81 3f 68 af f5 bd
       0.0837546 -0.64164585 1.0131875 -0.11996347
0000a0 18 01 71 bf 48 42 12 3e 14 28 2a c0 fc 06 1c bd
       -0.94142294 0.14283097 -2.6586962 -0.0380926
0000b0 be cf 90 bd df 6c 43 bf b0 f9 91 bf e4 18 40 bf
       -0.07070874 -0.76338 -1.1404324 -0.7503798
0000c0 7a 8c 3f 3e e3 4c ef 3e 40 43 2e 40 12 0d 4a 3f
       0.18705931 0.46738347 2.7228546 0.78926194
0000d0 8f 83 e0 bf 6d 7a 7c bf c8 11 fd be 49 d6 67 be
       -1.7540148 -0.98624307 -0.4942763 -0.22640337
0000e0 b2 ce d6 3e 40 48 03 40 5c 3f 6d 3f b7 76 e8 3d
       0.4195457 2.0512848 0.92674804 0.11350768
0000f0 aa 25 13 bd 1e 73 5b bf 5e 2d 77 3e e4 1d 21 bf
       -0.03592459 -0.8572253 0.241384 -0.62936234
000100 bd d9 08 3f de 2b 8b be 2c 5b 89 be eb bb 14 bf
       0.5345724 -0.27181906 -0.2682737 -0.5809924
000110 29 85 85 be 49 a4 ec 3e 2b 54 03 c0 b6 8e 29 3f
       -0.26078156 0.4621909 -2.0520122 0.66233385
000120 c1 12 58 bf f0 86 12 be 15 83 b9 3f 49 9d a5 bc
       -0.84403616 -0.14309287 1.4493128 -0.020216601
000130 aa 55 e0 bf 23 7b 75 bf bf 91 45 bf 98 b9 6e bf
       -1.7526143 -0.95891017 -0.77175516 -0.93251944
000140 1d ce 3d bf 73 ed 9d bf a1 e5 23 3f f3 92 72 3e
       -0.7414263 -1.2338089 0.6402226 0.23688869
000150 3e 48 6d bc 91 fe 3f bf 14 b2 13 3f fb b7 ec 3f
       -0.014482556 -0.7499781 0.576936 1.8493646
000160 d2 3c b9 3f 7d c1 80 3f e2 78 3a 3f 34 e0 c2 be
       1.4471686 1.0059048 0.728407 -0.38061678
000170 ce 1f b0 be 52 20 10 40 39 ad b0 3d 9e 35 e4 3e
       -0.34399265 2.2519727 0.086267896 0.44572157
000180 67 4d 41 3e 8a 61 2f be f2 48 6d 3f ea 86 c0 bf
       0.18877183 -0.17127052 0.9268943 -1.5041173
000190 94 ca 1c bf 9b 0b 11 3f 31 40 c5 bd a0 84 50 bf
       -0.6124661 0.56658334 -0.09631384 -0.8145237
0001a0 a9 fc e5 bc 14 11 0b bf 80 fe 9f 3f 38 23 83 bf
       -0.02807458 -0.54322934 1.2499542 -1.0245123
0001b0 70 21 25 bf 3e db 23 3f 3c 2c 22 3f 40 9f 08 c0
       -0.64504147 0.6400641 0.63348746 -2.1347198
0001c0 70 83 d4 bf 72 6c 6f bf 7a 4e 97 3f 9b 94 04 40
       -1.6602612 -0.9352485 1.1820824 2.0715702
0001d0 a9 48 df 3f 22 5c 2d 3f f4 59 17 bf 5f 11 d7 3f
       1.7444049 0.6771871 -0.5912163 1.6802176
0001e0 1a 3b 4c bf 2f df d9 be 1f a5 0d 3f e5 4a a1 bd
       -0.7977768 -0.42553088 0.5533008 -0.07875613
0001f0 5d f6 df 3f c0 b9 e8 3e f1 a4 35 be b0 19 35 3f
       1.7497059 0.45454216 -0.17738701 0.7074232
000200 b8 9c 0a 3f 31 65 5c 3f c9 a2 c3 be 9b 05 1d 3f
       0.54145384 0.86091906 -0.38210133 0.6133668
000210 21 a8 2a 3e 0e fa b6 3f 05 15 46 3e 85 18 11 bf
       0.16665699 1.4295061 0.19343956 -0.5667804
000220 f7 ee c6 3e 69 7d 47 bf b7 58 12 bd 82 b3 44 3f
       0.3885419 -0.77925736 -0.035729136 0.7683641
000230 83 83 ac 3e ef 64 7f 3f b6 09 8f 3f bc 20 0a 40
       0.33694085 0.9976339 1.1174839 2.158248
000240 ab 6d c4 3f a1 39 5f bf 77 43 0d bf 99 fd 9d 3d
       1.5345968 -0.8719731 -0.5518107 0.077143855
000250 3b 1f 39 3f 8d 8c 1c 3f 16 6c 51 3d 92 69 af bd
       0.7231328 0.61151963 0.05112847 -0.08565058
000260 91 e7 60 bf 02 eb fc be f4 3d 89 3f 74 f5 ea bf
       -0.8785334 -0.49398047 1.0722032 -1.8356156
000270 00 96 c8 bf f3 9c 8e 3e f1 f1 3e be 16 52 11 bf
       -1.5670776 0.27854118 -0.18646981 -0.5676588
000280 06 2b f3 bf eb e7 86 3e 5f 24 85 bf 16 a6 e6 3f
       -1.8997505 0.26348814 -1.0401725 1.8019435
000290 b7 b1 91 3f b0 75 37 bf c8 7b 7e bf d8 ef d4 3f
       1.1382359 -0.7166395 -0.99407625 1.6635695
0002a0 cf 9c 92 3f 24 9d 2d 3e a8 d8 aa 3f 2b 0e 90 bf
       1.1454104 0.16954476 1.3347368 -1.1254324
0002b0 41 90 d0 3e d2 e8 b2 3e 83 2e 4b 3f 9d 6d 71 3f
       0.40735057 0.34943253 0.79367846 0.9430788
0002c0 27 1f b4 3d a8 ce ad be f8 7a a8 be 0c b6 bd be
       0.08795004 -0.3394673 -0.32906318 -0.37052953
0002d0 1d a6 fb be cc 46 9d bf 00 10 24 3f c9 9d c3 be
       -0.49150172 -1.228723 0.64086914 -0.38206318
0002e0 cb da fe bf ad 73 eb bf e0 6b b8 bf 26 a4 b3 3e
       -1.991052 -1.8394676 -1.4407921 0.35086173
0002f0 5f f9 2b bf 47 b7 a3 3f 65 96 ba be a8 23 54 bc
       -0.67177385 1.2790307 -0.36442867 -0.012947954
000300 29 76 07 bf 53 8d 41 bf 1a 54 8c 3f b2 ac 21 3f
       -0.52914673 -0.7560627 1.0963166 0.6315414
000310 19 d6 0f bd 72 38 2c bf 13 14 44 3f b9 c9 f3 3f
       -0.03511629 -0.6727363 0.7659313 1.9045936
000320 4e a7 7a bf 60 51 c3 3e f9 6b 5f 3f ea 78 32 be
       -0.97911537 0.38148022 0.8727413 -0.17428938
000330 56 ed c2 be ab 20 c4 3e 6b d6 9c bf 2b 89 65 be
       -0.38071698 0.38306174 -1.2252935 -0.22415607
000340 c3 28 e3 bf f5 61 4a bf 2c 9b 46 be 4a e1 d7 bf
       -1.7746814 -0.7905572 -0.19395131 -1.6865628
000350 ec 9a 9b be 42 94 ae bf 27 21 90 bf e5 8d c4 3f
       -0.30391634 -1.3638995 -1.1260117 1.5355803
000360 d4 6a 22 bd 08 54 fa bf 95 1f ca 3f 27 af a6 3f
       -0.03965266 -1.9556894 1.5790888 1.3022202
000370 84 25 ab bf 86 61 8f be 62 4f 50 3e 91 7f ad bf
       -1.3370824 -0.28004092 0.20342782 -1.3554555
000380 1b 9a 31 3f 28 bb cf 3e f6 ad 0a 3f 16 e4 0a bf
       0.6937577 0.40572476 0.54171693 -0.5425428
000390 94 7a d9 3e 22 f3 b8 bf f1 df 2e 40 7c 0b cb be
       0.42476332 -1.4449198 2.7324183 -0.396572
0003a0 a5 75 05 bf 4e 45 b6 3f 04 cb 42 3f b3 83 b6 bf
       -0.52132636 1.42399 0.7609103 -1.4258941
0003b0 ca 76 e6 bf ed d1 9e bd 04 fc e0 bd c6 2f 6f 3f
       -1.8005002 -0.07754884 -0.10985568 0.9343227
0003c0 02 8c c2 bf df 7d 8f be f7 dd 57 bf 6d f1 b1 bf
       -1.5198977 -0.2802572 -0.84323066 -1.3901802
0003d0 5d 6b 14 3f 34 ea 02 3c 78 49 82 3f 1b 88 65 3e
       0.57976323 0.007990409 1.0178671 0.22415201
0003e0 d8 a1 16 3f 99 61 9f bf 9a 41 81 bf 5e 20 95 3f
       0.58840704 -1.245166 -1.0098145 1.1650503
0003f0 d7 b6 b1 bf 92 3f 63 bf f8 c6 62 3f 93 fd 3f 3f
       -1.3883923 -0.88768876 0.8858485 0.749963

attn.in_proj_weight f4 [96, 32]
000000 c5 72 e0 3d e2 c1 8a bd fe 15 f6 bc 9b 8b 0b bd
       0.109593906 -0.067752615 -0.030039784 -0.034068685
000010 e7 f7 82 3e e6 b4 57 bc c2 0c 51 3e b2 f6 a3 bc
       0.2557976 -0.013165688 0.20415023 -0.020015094
000020 0f c7 ef bb ea 5a 33 be 8a 8e 7f 3e 60 72 79 bd
       -0.007317431 -0.1751515 0.24956718 -0.060900092
000030 48 17 bc bc bc 3b 95 3e 24 d8 cd 3b b6 eb b6 bd
       -0.02296032 0.29147136 0.0062818695 -0.08931677
000040 d4 45 08 3d 16 e6 10 be 31 a3 8c be ca 11 b3 3c
       0.03326972 -0.14150271 -0.27468255 0.021859068
000050 29 17 0c 3d 93 5d 1d 3e 6e cd 3d 3d 48 1b 33 3e
       0.034201775 0.15367727 0.04633849 0.17490876
000060 07 f0 91 bd 09 4b 71 3e 1a 0d 46 3e b8 61 1c be
       -0.0712586 0.2356378 0.19340935 -0.15271652
000070 01 a3 9b be 26 d4 a8 bd 00 b3 47 bc d0 7b 17 be
       -0.303978 -0.08243589 -0.012188673 -0.14793324
000080 c6 b5 8f be bd bf 62 bd d9 17 6a be c7 b4 83 bd
       -0.2806837 -0.055358637 -0.2286066 -0.06430965
000090 10 dc 05 be 13 dd 99 bd 57 d4 ce 3d a8 59 6e 3e
       -0.13072228 -0.0751287 0.10099094 0.23276389
0000a0 3d d9 32 be 04 f5 3f 3e f3 77 f6 3d 4f 9a 48 3d
       -0.17465682 0.1874581 0.12034597 0.048975285
0000b0 2d 2c a0 bd 4c 1c ae 3e 4b 57 52 3e d5 ea c5 bd
       -0.07820926 0.34005964 0.20541112 -0.09663931
0000c0 73 48 55 be 72 20 f3 3d 55 e4 5a 3d 8f 8f a6 3d
       -0.20828418 0.11871423 0.05344041 0.081328504
0000d0 e9 53 fb bd 84 c0 aa bd 77 0a 90 be 95 64 46 bc
       -0.12271864 -0.08337501 -0.28132984 -0.012108942
0000e0 3d e3 0d bd a4 de 23 3c 8b 68 81 bd 7f 9f 1d 3e
       -0.03464054 0.010001812 -0.06318768 0.15392874
0000f0 e5 21 b0 bd 69 c5 4f bd bc 79 3a 3e 43 5f 87 bd
       -0.08600215 -0.050725374 0.182105 -0.066099666
000100 60 1b 9f 3e 10 1c 01 3d a8 e5 1c 3e d2 ca 58 3d
       0.31075573 0.031520903 0.15321982 0.0529278
000110 b2 67 0f 3e 14 25 a8 3e 6b 7b ce 3d eb 5c 00 be
       0.140044 0.32840788 0.10082134 -0.12535445
000120 3b d4 0d 3e e9 0f 1a be 45 b7 b0 bd 5f c2 12 3e
       0.13850491 -0.15045132 -0.08628706 0.14331959
000130 4b 2f f5 bc 82 d0 fc bc 98 6f 00 3e c8 cb 4e be
       -0.029929778 -0.030861143 0.1254257 -0.20194924
000140 67 7a 3c 3b 5b 37 9f be b7 c5 91 be 65 76 6e 3e
       0.002875948 -0.3109692 -0.28471157 0.23287351
000150 c9 f8 ae 3d bb bd eb bc 03 19 c6 bb e5 4f c3 3d
       0.08543546 -0.028776994 -0.006045462 0.09536723
000160 7d b5 36 3e 98 86 d2 3d 68 33 7e be 46 41 bb 3b
       0.1784267 0.10279578 -0.24824297 0.0057145683
000170 d9 a5 59 be c8 5e 17 3e b2 58 bf 3d a4 58 10 bd
       -0.21254672 0.1478225 0.09343089 -0.035240784
000180 c5 bb 6b 3e 38 5d 00 3d a5 ea d9 3d 3f 66 fe 3d
       0.23020847 0.0313389 0.10640458 0.12421846
000190 b4 7d 65 be 08 10 85 3e 79 c1 ee 3d 85 88 57 be
       -0.22411233 0.25988793 0.11657996 -0.21048172
0001a0 6d 95 18 3d 90 f5 df 3d 6b 6e 67 bd 7e c1 bd be
       0.03725188 0.10935509 -0.056501787 -0.37061685
0001b0 a5 14 17 3b 5b 67 a5 bd 81 c6 cc bd 03 aa 35 3e
       0.0023053077 -0.08076354 -0.09998799 0.17740636
0001c0 5e 53 9b 3e 65 ed 89 3c ea 8f be 3c 5c 5d 32 be
       0.30337042 0.016836831 0.023261983 -0.17418426
0001d0 39 b9 0f 3d 8f 28 ca bc 83 60 08 3e 21 e7 93 3e
       0.03508875 -0.024677543 0.13318066 0.28887275
0001e0 3a 74 6f bd 21 60 a7 bd cd 8d e2 bd 67 7f 25 3e
       -0.05846045 -0.08172632 -0.110622026 0.16161881
0001f0 d6 a0 4a bd 76 7f 40 be 83 9b c5 bc f5 d8 23 3e
       -0.04946979 -0.18798622 -0.024122005 0.16000731
000200 0e 77 35 3d f1 16 a7 bd 12 ae 67 be 56 66 67 be
       0.044302993 -0.081586726 -0.22624996 -0.22597632
000210 90 17 01 3e fe 7f a3 be 6f 13 1b bd 17 fb 4b 3e
       0.12606645 -0.31933588 -0.03786033 0.19920002
000220 02 44 dc 3d 80 61 6f 3e b8 b3 2c 3e b8 4f 3f 3d
       0.10755159 0.23377037 0.16865432 0.046706885
000230 9e c3 4c 3e 7e 08 39 3e 49 9c df 3a 3a 4c 9b bd
       0.19996497 0.18069646 0.0017060126 -0.075828984
000240 c1 62 85 be ca 20 2d 3e 7a 8d 9a 3c a1 72 11 bd
       -0.26051906 0.1690704 0.01886629 -0.03550971
000250 00 53 4c 3e e7 e4 09 3d 8f 21 ba 3d 1c aa cc bc
       0.19953537 0.033665564 0.09088432 -0.024983458
000260 60 f8 3c be a8 e7 2e 3d 32 71 84 3e 33 5f f0 3d
       -0.18454123 0.042701393 0.2586761 0.11736908
000270 13 98 37 3e 6f 8b 86 bd b1 92 58 3e 9c fe ea 3d
       0.17929105 -0.065695636 0.21149708 0.11474344
000280 6e 01 00 3e 57 3b 57 be 1c 68 eb 3d 4e 37 0b 3e
       0.12500545 -0.2101873 0.11494467 0.13595316
000290 0e c9 28 bd 6e 84 cb bd a6 79 33 bd 5b 35 c7 3d
       -0.041207366 -0.09937368 -0.043817185 0.097269736
0002a0 54 3f d1 bd 17 33 a0 bd aa a6 8a 3c 75 a8 0b be
       -0.10217157 -0.078222446 0.016925175 -0.1363848
0002b0 b2 83 7c be 1a 5c 95 bd 9d 31 a8 3d de ad 76 3e
       -0.24659613 -0.072929576 0.08212588 0.24089763
0002c0 74 2a 41 bd a5 0a 69 be cc 2c d3 3e 30 36 58 3e
       -0.047159627 -0.22757967 0.41245115 0.21114421
0002d0 30 37 b5 bd c0 fd 9e 3d 1a 5b cb 3d d9 8c 9a be
       -0.08848417 0.07763243 0.099294856 -0.30185583
0002e0 05 be ad 3c 97 ba 22 be 4f 87 86 bc d2 31 5f 3d
       0.021208772 -0.15891491 -0.016421942 0.05449087
0002f0 fa 35 ca 3d 61 a2 dc 3d 3f e7 de 3d 21 29 ac 3d
       0.098735765 0.10773159 0.108839504 0.08406282
000300 e5 1e 84 be fe d6 dc 3c e3 36 80 3e 87 4c 1f be
       -0.2580482 0.026957985 0.25041875 -0.15556537
000310 a4 ad d5 3d 02 34 fb 3d 1e 9f 10 bd cb b4 73 3d
       0.1043351 0.12265779 -0.035307996 0.05949859
000320 65 04 e5 3d b5 a4 a5 bd 54 0a 1f 3d 42 fc 8e 3e
       0.11182479 -0.08088056 0.03882821 0.27926832
000330 46 e4 50 3e c4 99 12 be e0 42 db 3d 1d 3f d4 bc
       0.2039958 -0.1431647 0.10706115 -0.025909001
000340 4b b3 95 bd 6c cf 59 3e 13 18 76 3e 44 0a a7 bc
       -0.07309588 0.21270531 0.24032621 -0.020390637
000350 7e e1 97 be e8 5b 34 3e 2f 1d 86 be 50 b7 af bd
       -0.29664224 0.17613184 -0.2619414 -0.08579886
000360 c9 77 ef 3e 73 00 0f bc 26 0c 7b be 86 29 75 be
       0.46771076 -0.008728134 -0.24516353 -0.23941621
000370 f9 38 2d 3e 25 9d 48 3e 18 40 72 bc 30 39 89 3d
       0.16916265 0.19591196 -0.014785789 0.06700361
000380 ef 8f 4e 3e 3b 68 69 bd d0 d2 d1 3c 38 a7 84 be
       0.20172094 -0.056984168 0.025613219 -0.25908828
000390 ec 1f 39 3e 5c 65 58 bd 73 3f 19 be e0 e9 88 be
       0.18078583 -0.05283104 -0.1496561 -0.26740932
0003a0 3c a9 63 3e 15 ff 92 bd 8a a4 86 bb 26 7d 53 3e
       0.22232527 -0.07177559 -0.00410897 0.20653209
0003b0 3f 41 52 3e 05 29 ae 3d c8 62 8f bc 4b 09 cb 3d
       0.20532702 0.085039176 -0.017503157 0.09913882
0003c0 f8 f1 95 3e bb a5 02 be 94 ef a6 be 26 c4 9d be
       0.2928617 -0.12758534 -0.3260466 -0.30813712
0003d0 34 cb 9f be a6 ae fc 3d f0 72 0f bd 3d 6a a8 3d
       -0.3120972 0.12337999 -0.035021722 0.08223388
0003e0 c4 60 e0 bc 0c 5f 83 be 9c 3a 54 3e fc c5 82 3d
       -0.027389891 -0.25658453 0.20725483 0.06385419
0003f0 3f 09 81 be 69 88 10 3d eb 3d b9 bd 50 7c 4f bd
       -0.25202367 0.03528634 -0.09045013 -0.050655663

attn.in_proj_bias f4 [96]
000000 38 5f 53 3e b0 25 97 3d bf 37 7e bc 0e 62 13 bd
       0.20641792 0.07380235 -0.015516221 -0.035982184
000010 1e 84 e5 bd 6f ef 26 be 8e 9d cc 3b 5a f9 16 3d
       -0.1120684 -0.16302274 0.006244368 0.036858894
000020 6a c7 c3 bc a9 bf 07 bc 11 72 09 3c 06 76 b4 3d
       -0.023898799 -0.008285441 0.008389012 0.08811574
000030 7a 57 d5 3d 8f d7 d3 3d 99 f1 4a be f2 eb b6 bc
       0.104170755 0.10343849 -0.19818725 -0.022329304
000040 ed 28 3e 3d eb d0 18 bd 95 06 e5 3c e2 d5 fe 3c
       0.04642575 -0.037308615 0.02795724 0.031107847
000050 6b 65 88 bc a3 c6 81 3d 42 e3 6f 3d cc c4 1e bd
       -0.016649922 0.06336715 0.05856634 -0.0387619
000060 cd 9b 59 bc 93 b2 cb 3c ef 38 d4 3c 8a cf 11 bc
       -0.013281775 0.024865424 0.025906054 -0.008899579
000070 a9 29 79 3d b0 bf b1 3b aa 19 40 3d c0 19 9e bc
       0.060830746 0.0054244623 0.046899475 -0.019299388
000080 6e bb 33 ba 0b b7 00 3a f5 e0 ce b9 d3 e9 83 b9
       -0.00068562373 0.0004910088 -0.00039458988 -0.0002516048
000090 5c 0c 1f 3a ee 08 bd b9 0b 1a b3 39 ca 78 bb 39
       0.00060672103 -0.00036055542 0.00034160944 0.00035757414
0000a0 9f 86 16 39 55 f8 a9 39 3d 22 3e b9 30 2a c1 b8
       0.00014355265 0.00032419214 -0.00018132567 -9.210815e-05
0000b0 bf ac 2f b9 ae 25 09 ba ee 16 41 39 1b e1 c1 b9
       -0.00016753653 -0.000523175 0.00018414456 -0.00036979545
0000c0 9e 90 46 38 ca 71 d2 b9 69 5c 3b ba b0 3a 79 39
       4.7341564e-05 -0.000401391 -0.0007147254 0.00023768353
0000d0 e6 fc 49 38 5f 48 e6 39 59 f1 9b ba 9e 08 9c b9
       4.8157664e-05 0.0004392294 -0.0011897489 -0.0002976106
0000e0 a8 5c 9f b8 bb 8d d9 b9 02 ab 0a 39 49 b5 91 3a
       -7.5989694e-05 -0.00041495063 0.00013224411 0.0011116649
0000f0 0e 26 01 ba 7a 8d 2b b8 c0 f8 12 ba 7d a2 04 3a
       -0.000492663 -4.0901337e-05 -0.00056065246 0.0005059613
000100 1d 93 fa bc d6 3d 01 bd c5 14 a3 3b b0 33 91 3c
       -0.030587727 -0.031553112 0.004976841 0.017724842
000110 48 73 96 bd 16 f1 92 bc 44 40 d1 bd c6 60 7e bb
       -0.07346207 -0.017937224 -0.10217336 -0.0038815006
000120 70 c1 a8 bb 2d 75 b9 bd ee 48 14 3d e7 18 8f bd
       -0.0051500127 -0.09055553 0.036202364 -0.069871716
000130 f3 00 0b 3e 22 cf 73 3d 57 90 50 bd 1b d2 33 bd
       0.13574581 0.05952371 -0.050918903 -0.043901544
000140 8c 10 55 bd 9e db f1 3a f7 79 ac 3d 77 f1 01 bc
       -0.052017733 0.0018452292 0.084217004 -0.007931105
000150 92 a8 a8 3c 26 8a 8e 3d b2 02 1e bd a3 5e 90 3d
       0.020588193 0.069599435 -0.03857679 0.070493005
000160 85 f7 e2 ba ed 59 ed bc df 89 c5 3d 0b fd 02 be
       -0.0017316198 -0.028973544 0.096454374 -0.1279184
000170 9c 12 1d 3d 21 bd c7 3c 24 e3 72 3d 70 6f 4f bd
       0.038347825 0.024382176 0.05929865 -0.050643384

attn.out_proj.weight f4 [32, 32]
000000 34 38 16 3e 2d bb 05 3d 7c 95 32 bd 47 19 6b be
       0.14669877 0.032649208 -0.04359959 -0.22958861
000010 44 c7 11 be c5 0c c1 3d 89 67 23 3d 6a 5f 00 3e
       -0.1423617 0.09426264 0.03989366 0.12536398
000020 ce 16 91 bd c1 ba ca bd 2f d3 db 3d dc 1d 8d bd
       -0.07084428 -0.09898902 0.107336394 -0.06890461
000030 06 a6 15 3e 84 62 b5 bd f8 02 8d 3d 44 c7 c4 bc
       0.14614114 -0.08856681 0.06885332 -0.024020799
000040 cf 4e 42 bc 79 07 e9 bd 52 37 29 be 8c d9 12 3e
       -0.01185961 -0.113783784 -0.1652501 0.143408
000050 c3 6b b8 bd a3 e2 25 3e 87 72 3e be 5d f5 c9 3b
       -0.09004929 0.16199736 -0.18598376 0.006163283
000060 da 8e 58 3d d3 3c 97 bd e4 98 6d 3d 0a 2d 85 3d
       0.05287061 -0.07384648 0.058007136 0.06502731
000070 cc 1d 80 3c 95 89 0d 3d f4 e8 d6 bd aa 44 84 3d
       0.015639208 0.034555037 -0.10493651 0.06458409
000080 bc c8 2f be 12 03 dd bd 60 80 19 3d 22 00 23 be
       -0.17166418 -0.10791601 0.037475944 -0.1591802
000090 1f 99 91 bd b6 0b 18 be 7b 73 cd 3d 16 ca b0 3c
       -0.07109284 -0.14848217 0.10031792 0.021580737
0000a0 e1 37 94 3d e9 f7 3c 3d 26 0c af bd 8a 54 dd 3d
       0.072372206 0.046134863 -0.08547239 0.1080714
0000b0 6d 91 52 bd f4 4b 25 3e ee 35 27 3d ef dd a8 3d
       -0.05140822 0.16142255 0.040822916 0.082454555
0000c0 4d 02 2e be 83 d5 e8 bd dc e2 13 3e 79 ef 42 be
       -0.16993065 -0.11368849 0.14442009 -0.19036664
0000d0 1d 98 bf bd 26 2a 06 be 6e f1 db 3d 83 8c 0a be
       -0.09355185 -0.13102016 0.107394084 -0.13530163
0000e0 02 37 c3 bd 37 af a3 3d fd 5d 53 3d 26 be a7 bd
       -0.09531976 0.07992404 0.051603306 -0.08190565
0000f0 80 1c d5 3d 3f bc 3f be 36 2f 05 3d 98 cb 97 bd
       0.104058266 -0.18724154 0.032515727 -0.07411879
000100 5c 62 0e bc a3 b5 25 bc 1b f9 07 be f0 10 8b 3d
       -0.008690443 -0.010114106 -0.1327862 0.0679034
000110 90 67 4a 3e ba 8e 03 bd 93 a3 2b be 3d 68 2e bd
       0.19766068 -0.032118537 -0.16761617 -0.042579878
000120 c3 8a ff bc b0 35 01 3c 61 19 23 bc 82 57 f4 bd
       -0.031194096 0.007886335 -0.009954781 -0.11930753
000130 b9 1a fb bc b6 8a 8e 3c 3b 9d 10 3d 23 d0 2d be
       -0.03065239 0.017400127 0.035306197 -0.16973929
000140 6a 82 54 3e eb 81 27 bd 8e d2 86 3c fb 14 32 be
       0.20752874 -0.040895384 0.016457822 -0.17390816
000150 dc b5 35 bd ab c1 d4 bd 63 48 9f bd 45 d0 13 3e
       -0.044362888 -0.10388502 -0.077774785 0.14434917
000160 58 02 14 3e 5c 6e 46 3e 06 a4 19 bd 96 4f b0 3c
       0.14454019 0.19378036 -0.03750994 0.021522325
000170 c4 6f c8 3a 3c 15 6f 3d 44 06 87 bc fb 1c e0 3d
       0.0015292098 0.05836986 -0.01648248 0.109430276
000180 f1 01 b2 3d 49 61 f6 bd e9 f9 1b be fa 2b 88 3d
       0.086917765 -0.120302744 -0.15232052 0.06649013
000190 14 e0 11 be 2f 6c 35 bd e4 95 6f be 4f db bd bd
       -0.14245635 -0.044292625 -0.23397022 -0.092703454
0001a0 97 40 30 be af 23 d6 bc 34 bf 31 be 04 30 80 be
       -0.17212139 -0.026140062 -0.17358094 -0.25036633
0001b0 b9 78 29 3d e8 df 42 3e 49 4e 19 bd 97 b4 2c 3e
       0.041374896 0.19030726 -0.037428174 0.16865765
0001c0 7c c0 b9 3c f8 5f b7 bc 14 8f 75 3d d0 f6 45 bd
       0.022674792 -0.022384629 0.059950903 -0.048331082
0001d0 9f de 58 3e 05 a6 11 3e a3 ce 8c bd a6 9f 61 3e
       0.21178673 0.14223488 -0.0687535 0.22033557
0001e0 e5 62 0e 3e 4b bc e8 3d 15 99 a4 3d d3 dd f4 3d
       0.13904913 0.11364039 0.080370106 0.11956372
0001f0 42 74 49 ba da a5 2c bd 10 d3 38 bd d2 3a 1a be
       -0.0007684865 -0.042150356 -0.04512316 -0.150615
000200 8b cf d9 3d 2b 30 43 be 1e ea 48 bd 55 10 5a 3e
       0.10635289 -0.19061343 -0.049051397 0.21295293
000210 93 3d 30 3e c5 d2 23 bd 44 c8 0c 3d 15 45 19 3e
       0.17210989 -0.039995927 0.034370676 0.14967759
000220 0a 8b c8 3c 49 f8 8f bd 9a 87 1a be 03 9e 31 be
       0.024480361 -0.070297785 -0.1509079 -0.17345433
000230 2a 1a 5c 3d 5e af 02 bd 48 75 c2 3d 77 91 31 bb
       0.05373589 -0.031905524 0.09495026 -0.002709476
000240 5a 66 f0 bc e4 00 3a be b4 b7 51 be d4 f2 84 be
       -0.02934568 -0.18164402 -0.20480233 -0.25966513
000250 1f a6 e0 3b c2 03 70 3e ed 00 96 bb e4 35 02 3e
       0.0068557407 0.23438933 -0.004577747 0.1271587
000260 08 d2 b3 bc e3 52 da 3d 12 65 17 3e 6c 58 34 3e
       -0.021950737 0.10660341 0.14784649 0.17611855
000270 b9 cd 13 3e d2 e4 73 be b0 0a b0 3d 1c 9e 3e be
       0.14433946 -0.23817757 0.085957885 -0.18615001
000280 6f 12 02 3e c6 28 2a 3b 4e 90 6b bd 3b 2d 5b bd
       0.12702344 0.0025964244 -0.057510667 -0.053509932
000290 b9 54 e0 bd 5e 9e 88 bc 26 4c f2 3c 98 26 28 3e
       -0.109536596 -0.016677078 0.029577326 0.16420972
0002a0 be 50 6f be b1 0f 29 bc ba c3 23 3e f7 b7 fc bd
       -0.23370644 -0.0103186825 0.15992633 -0.12339776
0002b0 a5 c3 07 be 05 fc 9c be 7a 80 29 be a7 6f 99 be
       -0.13258226 -0.30661026 -0.16552916 -0.29967996
0002c0 94 45 c9 bc 06 17 43 bd 07 6f 74 3b 04 23 6a 3c
       -0.02456931 -0.04762938 0.0037297623 0.014290575
0002d0 ab 03 f8 3d 51 a1 fe 3c 50 46 1c be e2 a0 32 bc
       0.121100746 0.031082781 -0.15261197 -0.010902615
0002e0 54 3c 29 be 3a 2c 28 be 64 4c 7d be 8a e2 01 be
       -0.1652692 -0.16423121 -0.24736172 -0.12684074
0002f0 7e b2 0a 3e 4f de b6 3d 5b e9 07 3e c2 f1 11 39
       0.13544652 0.08929121 0.13272612 0.0001391834
000300 62 06 44 be a8 d3 da bd b7 0e 75 be 29 f9 28 3e
       -0.1914306 -0.106849015 -0.23931395 0.16501297
000310 bf 42 ec bc 6e 95 49 be aa b1 58 bd 70 7f 0b be
       -0.02884042 -0.19685909 -0.05290381 -0.13622832
000320 c4 1d 30 be c0 be 28 3e c5 9b b0 3c 1b 80 a6 bc
       -0.17198855 0.16479015 0.021558652 -0.020324757
000330 d0 33 4e be 47 c2 f6 3b 8c 4c f2 3d ce f4 3a bc
       -0.20136952 0.007530484 0.118310064 -0.011410905
000340 dc 71 27 3e 87 ab db bd 0e 4c 84 bd e9 7e 9e bd
       0.16352028 -0.107260756 -0.06459819 -0.0773905
000350 11 97 3f be 2d b8 85 3d 20 e1 22 bd 6f 62 f6 3d
       -0.18709971 0.06529269 -0.039765477 0.120304935
000360 e1 85 90 bd 68 dc 10 bd 40 89 82 3d c2 30 80 bd
       -0.070567854 -0.035366446 0.063738346 -0.062593
000370 61 44 ac bc ef d8 03 bd 29 1a 34 be 1d 67 f0 3d
       -0.0210287 -0.032189306 -0.17588104 0.11738417
000380 b4 77 10 be 6c 79 5d 3e a6 98 2c 3e f7 d5 61 be
       -0.14108163 0.2162835 0.16855106 -0.22054277
000390 9b 26 83 bd b2 75 87 bd f4 24 20 be d2 f2 5b 3c
       -0.06403848 -0.066142455 -0.15639096 0.013424592
0003a0 70 01 0a be f8 1f 9d bd fb 52 79 be f0 ee 1c 3d
       -0.13477111 -0.07672113 -0.24348061 0.038313806
0003b0 d0 37 a5 3d b0 fd 1e bd 40 c7 c4 bc e6 14 1c bd
       0.08067286 -0.038816154 -0.024020791 -0.038105868
0003c0 7a af 0a 3c d6 a4 88 bd 64 be 8c 3e 18 c6 13 3e
       0.008464688 -0.06672065 0.27489007 0.14431036
0003d0 91 65 66 be a5 0d 00 3d cf 23 6b bd 89 43 13 bd
       -0.22499682 0.031263012 -0.057407197 -0.03595308
0003e0 11 3c 18 3e 27 ff c8 bc 5f 86 38 3c 04 9b 7a bc
       0.14866664 -0.024535729 0.011262505 -0.015295748
0003f0 8b 21 c4 bd 6e 42 f4 3d be a1 aa bd f0 44 86 3e
       -0.0957671 0.11926733 -0.08331631 0.2622447

attn.out_proj.bias f4 [32]
000000 6b 22 20 3d f5 8a 16 3c 43 0d 77 3d 11 d3 9e 3d
       0.039095324 0.009188403 0.06031538 0.077551015
000010 a9 36 35 3d 5e cc 0c 3d df ad 0f bd e4 f6 84 3b
       0.04424158 0.034374587 -0.035077926 0.004057752
000020 6e b0 d8 3b ba 68 0c bd 20 77 92 3d 50 2f ba 3c
       0.006612829 -0.034279563 0.071516275 0.022727638
000030 d5 22 d8 3c 79 c3 f7 3d 42 6e 70 bd 28 f5 d6 bd
       0.026383797 0.1209783 -0.0586989 -0.104959786
000040 93 0d 25 bd 21 56 31 3b 9b 36 c8 bd 1e 08 b3 bb
       -0.04029615 0.0027059393 -0.0977604 -0.005463614
000050 0e 21 80 bb fe 87 ec bc 32 dc c7 3c 80 ad c4 bd
       -0.0039101904 -0.02887344 0.02439699 -0.09603405
000060 e5 22 00 be 86 1e 44 bc fd d1 5b 3a bd b1 d5 3d
       -0.12513311 -0.011970168 0.00083854777 0.104342915
000070 44 3d 5d 3d 9e de 19 3d a2 90 65 3c 3c eb b9 bc
       0.054013506 0.03756582 0.014011534 -0.022695176

norm.weight f4 [32]
000000 7d b6 74 3f ed f3 71 3f 2b 11 73 3f 4c 55 72 3f
       0.95590955 0.94512826 0.9494807 0.946614
000010 a9 b2 70 3f 20 09 7e 3f 3d 77 70 3f 16 cd 78 3f
       0.94022614 0.99232674 0.93931943 0.97187936
000020 67 b5 77 3f ee 34 78 3f 2b 59 77 3f a8 20 7b 3f
       0.96761173 0.96955764 0.96620435 0.98096704
000030 08 55 70 3f 64 96 83 3f 0e 4d 88 3f 00 a7 75 3f
       0.9387975 1.028027 1.0648515 0.95957947
000040 d1 72 75 3f c5 e7 81 3f 9a be 76 3f 91 84 77 3f
       0.9587832 1.0148855 0.96384585 0.96686655
000050 76 8c 7d 3f 64 e7 67 3f 00 3c 76 3f 1c b7 72 3f
       0.9904245 0.9058745 0.961853 0.9481065
000060 b8 7c 6d 3f af f9 69 3f 29 76 80 3f fb 53 80 3f
       0.9276843 0.9139661 1.003606 1.0025629
000070 45 20 7e 3f 48 3a 73 3f c5 85 71 3f e2 14 75 3f
       0.9926799 0.95010805 0.9434474 0.9573499

norm.bias f4 [32]
000000 f4 67 65 3d b1 ef d7 3b 0a 2d 6c 3d fb 54 94 3d
       0.05600734 0.0065898527 0.05766014 0.07242771
000010 ad ac 4f 3d 21 83 33 3d 75 79 21 bd db 6d e0 ba
       0.050701786 0.043826226 -0.03942247 -0.0017122583
000020 35 8e 09 bd e1 ad b8 bc 89 17 6d 3d b9 8b 7f 3c
       -0.033582885 -0.02254385 0.057883773 0.015597277
000030 75 58 2e 3d 98 2b ee 3d fe dd 5c bd 0e ed c3 bd
       0.042564828 0.116294086 -0.053922646 -0.09566699
000040 fd ef 41 bd e2 09 89 3b 9c f3 aa bd db c9 41 3c
       -0.04734801 0.0041820863 -0.08347246 0.011827911
000050 26 6f b5 bb dc ca 06 bd d9 0f 35 3d 08 22 f0 bd
       -0.0055369316 -0.032908306 0.044204567 -0.11725241
000060 15 4e df bd 64 93 c2 3b d2 2f d9 3c 25 a9 d7 3d
       -0.10903565 0.0059379805 0.02651206 0.10530309
000070 95 68 c1 3d 09 6f 58 3d a4 5a 81 3c 9d 5b 05 bd
       0.094437756 0.052840266 0.015790291 -0.032558072

classifier.0.weight f4 [128, 320]
000000 ad 43 57 3c 1d 76 31 bd 1d ab d6 bc 13 68 12 bd
       0.013138694 -0.043325532 -0.02620464 -0.035743784
000010 8b f2 c5 bc fe b5 07 bd ee 5a 20 bd 1f de 84 3d
       -0.024163505 -0.033132546 -0.039149217 0.06487679
000020 48 31 ab bd 61 22 3d bd aa 35 64 bd 71 ea 98 bd
       -0.08359009 -0.046175364 -0.05571524 -0.07466591
000030 9f 9c 45 3b d5 a8 2e 3c 3e b7 8d 3d 4d 93 b6 3c
       0.0030153168 0.01066037 0.06919716 0.022287035
000040 ff a3 36 bd 19 48 7e 3d 48 9a 0f bd 3d f9 72 3d
       -0.044589993 0.062080476 -0.035059243 0.059319723
000050 3e 94 76 3d 88 e2 34 bc 49 eb 4d bd 5b 13 09 bd
       0.06019997 -0.011040337 -0.050273214 -0.033465724
000060 df 5e b6 3d 80 c1 30 3d 5f 6c 86 3d c5 43 80 bc
       0.08904814 0.043153286 0.06563639 -0.015657315
000070 bf 3f 91 3d c9 a6 97 3d d0 c5 16 bd 33 4a 85 3d
       0.07092237 0.074048586 -0.036809742 0.06508293
000080 66 cb 31 bb ce 9d 7d 3c 8e e3 7e bc 57 8e 87 bd
       -0.0027129292 0.015479518 -0.015557183 -0.06618946
000090 f2 73 0c 3d 4a 71 08 be 56 14 fa bd e4 33 6a bd
       0.03429026 -0.13324466 -0.1221091 -0.057178393
0000a0 fa 4c 14 3b 62 fb 36 3d 4b 75 66 bc 67 76 8a bd
       0.002262889 0.04467333 -0.014066051 -0.06760865
0000b0 87 4c 7b 3c 7a 27 fe bc a9 87 7b bc 59 f2 02 3d
       0.01533807 -0.031024683 -0.015352168 0.031969402
0000c0 2a e3 b7 bc b0 4c 22 bd 96 bb 64 3c ce e9 88 bd
       -0.022447187 -0.039623916 0.01396074 -0.0668522
0000d0 65 7b 9e 3b 65 fd db 3c e9 a4 f5 bc 54 76 53 3d
       0.004836487 0.026854226 -0.029985862 0.05162652
0000e0 cf f4 41 bc 8c f8 87 3b 45 7e 10 3d 26 34 cc 3c
       -0.011838152 0.004149502 0.03527667 0.02492721
0000f0 73 db 90 bd 3d 69 04 bd d2 27 44 bb fa d5 88 3d
       -0.070731066 -0.032326926 -0.0029930961 0.06681438
000100 a0 c5 b5 3c e3 e5 84 bc 58 b2 09 bd a1 1f 6a bd
       0.022188962 -0.0162229 -0.033617347 -0.05715907
000110 65 66 a6 3d 13 4a a2 3c 5b 77 82 bd d2 7e 5e bc
       0.08124999 0.019810712 -0.063704215 -0.013580041
000120 ee 08 96 bd c3 ce 3f 3c 36 82 0f 3d 26 0c 15 3d
       -0.07325922 0.011707011 0.03503629 0.03638854
000130 e0 68 8d bd 35 84 ce bd 0f fe 2b 3d 59 b0 8f bd
       -0.06904769 -0.1008381 0.041990336 -0.070160575
000140 c2 11 09 3c 94 81 dc bc a4 94 be 3c 8b 91 34 bd
       0.00836605 -0.026917256 0.023264237 -0.044084113
000150 2b fc ab bc 39 f0 66 bc 6c 19 3f 3c 3c d0 e2 3c
       -0.020994266 -0.0140953595 0.011663776 0.027687185
000160 f8 08 29 bc 23 4d 71 3c ca c4 bf bd d6 d0 87 3c
       -0.01031708 0.0147278635 -0.093637064 0.016579073
000170 12 26 2c bd 12 f7 4e 3d 16 e5 37 bd 50 7a a6 3a
       -0.042028494 0.050528593 -0.044896208 0.0012701247
000180 0b ef 92 bc f2 38 a4 3d 82 08 fd ba e2 a8 b4 3c
       -0.01793625 0.08018674 -0.0019304904 0.022053186
000190 fe 72 9f 3d ab de 19 bd 20 df c3 bb ec 00 10 bd
       0.07785605 -0.03756587 -0.0059775263 -0.03515713
0001a0 61 92 d5 3c 84 82 de 3d 7d 46 db bc 8a da 4d 3d
       0.026070775 0.10864738 -0.02676701 0.050257243
0001b0 dd 18 ff bb 67 51 51 bd 81 ba 61 bd 48 d7 1b 3e
       -0.0077849464 -0.051103022 -0.055109505 0.15218842
0001c0 5a ca 1e bb a1 1f 17 bd 70 8c 7a bd 4b 6d 16 3d
       -0.0024229498 -0.036895398 -0.061169088 0.036725324
0001d0 81 62 72 3d 89 8c cd bb 66 c4 96 bd e3 95 fa 3b
       0.059175972 -0.0062728566 -0.07361679 0.0076472624
0001e0 0c 65 d1 3d 23 8c 71 3d 59 81 82 bd 11 92 4c bd
       0.10224351 0.058971535 -0.06372327 -0.049943987
0001f0 16 4e 46 bd 6a 52 79 3d 66 2f 6a 3d 95 f5 98 3d
       -0.048414312 0.06086961 0.05717411 0.07468716
000200 1e 47 01 3d cc eb 81 3d 19 b3 0a 3c 4c 33 69 bd
       0.031561963 0.06343803 0.008465552 -0.056933686
000210 93 96 c0 bd 45 cc 2e 3d e6 3b 92 bd 87 cc 83 3d
       -0.0940372 0.042675275 -0.07140331 0.06435495
000220 1e b3 c5 bc a4 63 82 bd 54 6d e7 bc 91 e3 5e bb
       -0.024133261 -0.06366661 -0.028250374 -0.0034010152
000230 3a 7e 18 bd 97 83 a2 bd ce 17 b9 3c 28 aa dd 3c
       -0.037229754 -0.07935255 0.022594359 0.027058676
000240 4f ae 3e bd 3c 8c e1 bd 55 2c 2e 3c be f6 27 3d
       -0.046552952 -0.11013076 0.010630687 0.041006796
000250 b5 43 a3 3d eb 92 ad 3d f1 2b 1a bd 0d aa 81 bb
       0.079718985 0.08475288 -0.037639562 -0.003957039
000260 54 be 7f bd 8e 85 30 bd d4 0d 13 3c 20 ae 9d bb
       -0.06243737 -0.043096118 0.008975465 -0.004812017
000270 11 f0 a2 bc 5a 58 95 3b 6a a6 c9 bc cc 2a af bc
       -0.019889863 0.0045576515 -0.024615485 -0.021382712
000280 73 59 e7 3c 1d b1 e0 3c 86 c2 b6 3d c6 6c 1b 3c
       0.028240895 0.027428204 0.08923821 0.009486383
000290 77 e1 ff 3c 66 b8 a0 3d 5b 2c ec 3b 9d 38 0d 3d
       0.03123544 0.07847671 0.007207436 0.03447782
0002a0 5e 9b c4 3d 66 47 77 3d c8 18 3e bd 96 90 00 3c
       0.095999464 0.060370825 -0.046410352 0.007846972
0002b0 70 96 9e bc 67 52 7e bc 5e 31 86 3d c1 72 53 bc
       -0.019358844 -0.015522576 0.06552385 -0.012905777
0002c0 d4 e8 9e 3c 18 66 da bc 1f 51 01 bc ce 1c c2 3c
       0.01939813 -0.02666001 -0.007892876 0.023695376
0002d0 a8 bb 9b bc d8 ff 39 bd a8 fd ce 3d 62 69 38 3c
       -0.01901038 -0.045410007 0.10106975 0.011255594
0002e0 df c0 27 bd e6 94 de bd d0 a6 b6 3d 12 1c 47 bd
       -0.04095542 -0.10868244 0.08918536 -0.048610754
0002f0 91 f0 bc bd e8 a1 8d bb c9 43 ea bc 82 fc a2 ba
       -0.09225572 -0.0043222792 -0.028596776 -0.0012434872
000300 74 e6 6b bd 25 5b 95 3c 49 af 4b bd 18 eb d8 bc
       -0.057592824 0.018231938 -0.04972771 -0.026479289
000310 40 a6 34 bd e1 52 81 bd 3a 3d a5 bd c4 57 e8 3d
       -0.04410386 -0.06314636 -0.08068319 0.11344865
000320 ee 1a 6d bd 30 fd 39 bb 0d 84 e9 bb 73 cb a6 3d
       -0.05788701 -0.0028379671 -0.0071263374 0.081442736
000330 f0 35 59 bd 0a e9 8d 3c 2c dd 8c 3d f0 8d cd bb
       -0.053029954 0.017323036 0.06878123 -0.006273024
000340 5a 2c b4 bd 87 4d 33 bd ce c6 2c 3e d7 15 29 3c
       -0.08797522 -0.043775108 0.16872713 0.010320148
000350 02 a4 a0 3d 89 e6 0c bb 9d 36 17 3c 4a 5d fb bd
       0.07843782 -0.0021499714 0.009229329 -0.12273653
000360 6c a8 f1 3d de 07 16 3d 32 6b 81 3d 33 79 10 bc
       0.11799702 0.036628596 0.06319274 -0.008817959
000370 ea 5c 40 3d da d1 c5 3c f7 78 90 3c a2 1f a6 3a
       0.04696361 0.024147917 0.017635806 0.0012674222
000380 cb 2b a7 bd 77 c7 3f bd ac 8b 5b 3d 3f 2e 9b bc
       -0.0816265 -0.046821084 0.0536 -0.01894295
000390 e0 d7 10 3e 44 11 12 bd 56 b4 85 bd 17 6f 8e 3c
       0.1414485 -0.035660997 -0.06528537 0.017386956
0003a0 41 8b 6d 3b ba b3 38 bd d1 ff 97 3c fa 3d 00 bd
       0.0036246332 -0.045093276 0.0185546 -0.031309105
0003b0 1e 10 c2 bd 50 5f 49 bd e0 9d ca ba 71 3c 8c 3d
       -0.0947573 -0.049163163 -0.0015458427 0.06847466
0003c0 0e 7c ad bd c9 19 39 bc 7f 2c 85 bd 88 96 95 3c
       -0.08470927 -0.011297652 -0.065026276 0.018260255
0003d0 25 8c 20 3a 9b c6 41 3d 97 ad 0e 3d 0f 75 1a bc
       0.0006124399 0.047308546 0.034833517 -0.009427323
0003e0 6f a7 73 bd 96 ca 64 3d be a8 fd 3c 46 39 8d 3d
       -0.05948585 0.055857264 0.030964252 0.0689569
0003f0 dc 5d 97 3d 72 ef 9e bd 4a 82 54 3d ce 00 76 bd
       0.07390949 -0.07760514 0.051882066 -0.06005936

classifier.0.bias f4 [128]
000000 43 60 ef bc f9 ce 58 bd 96 a0 4d bd f5 a9 07 bd
       -0.029220706 -0.05293176 -0.050201975 -0.033121068
000010 41 a7 97 bd 99 67 db 3b 4e 9c 17 bd bd 84 60 bd
       -0.07404948 0.0066956994 -0.0370143 -0.05481409
000020 d4 72 a4 bd 4b 6a dd bd fb 70 21 bc 47 0e 0b be
       -0.08029714 -0.108112894 -0.009853597 -0.13579665
000030 c9 16 e7 bd 1a 26 b6 bd 02 1f 3d bd d4 03 dc bd
       -0.11283643 -0.08893986 -0.04617215 -0.10742918
000040 a3 12 ac bd e8 5a cc bd 35 d3 b4 bc 47 1e e4 bd
       -0.08401992 -0.099782765 -0.022073368 -0.111385874
000050 da 48 a6 bc b4 23 3c bd 55 97 6c bd 5b e9 0b bb
       -0.02029841 -0.045932487 -0.05776151 -0.0021348807
000060 97 f1 7a bd 89 41 ed bd e4 32 d5 bd e9 1d 59 bd
       -0.061265554 -0.115847655 -0.10410097 -0.05300704
000070 f6 94 cb bd 71 57 2a bd 03 80 32 bd a1 40 ac ba
       -0.099405214 -0.041587297 -0.043579113 -0.001314182
000080 77 3b 0e bd fc ef e5 bd 54 6b 8d bd 04 41 0f be
       -0.03472468 -0.11227414 -0.06905237 -0.13989645
000090 c7 1b 99 bd 6d 42 27 bd e9 f3 67 bd f4 d6 96 bc
       -0.07476001 -0.040834833 -0.056629095 -0.018413045
0000a0 7d 04 05 bd d8 0c b9 bd 10 bd 8c 3c ab 6d 00 bd
       -0.032474983 -0.09035653 0.017179996 -0.031354588
0000b0 96 3c ae ba b8 fd 1a bd 5d 79 ec bd 72 a9 0e bd
       -0.0013293203 -0.03783962 -0.11546586 -0.034829564
0000c0 84 c7 97 bd bd ae 7e bb 71 17 e4 bc 79 55 55 3c
       -0.074111015 -0.0038861476 -0.027843209 0.013020867
0000d0 37 dc b2 bd ea e2 b6 3b 30 ee 3c bb ae 3b 16 bc
       -0.08733409 0.0055812495 -0.0028828494 -0.009169502
0000e0 fc 96 97 bd b3 7a de 3c 2c 8f e9 bc 7a e8 5d bd
       -0.07401845 0.027158117 -0.028510652 -0.054176785
0000f0 c7 25 21 bd f2 d1 18 bd c9 ca 84 bd ca ee 29 3d
       -0.039342668 -0.037309594 -0.06483991 0.041487493
000100 04 5e 28 bd a5 98 e6 bd 2d 46 25 bd 28 35 c5 bd
       -0.041105285 -0.112595834 -0.040350128 -0.096292794
000110 9f ec af bd 88 8d 8b bd ca 9d f4 bd 80 ef 87 bb
       -0.08590054 -0.06814104 -0.119441584 -0.0041484237
000120 f4 5c bd bd 48 c7 d8 bd ff 2e 76 bd 04 d0 b7 bc
       -0.09246245 -0.10584885 -0.060103413 -0.022438057
000130 6c 26 b9 bd 27 61 15 bd ce 2d 38 bd dc 49 b7 bd
       -0.090405315 -0.036469605 -0.044965558 -0.089496344
000140 72 18 c4 bd 9d 04 e7 bc f0 30 c0 3b db 45 c8 3a
       -0.09574975 -0.028200442 0.005865209 0.0015279608
000150 0f d5 64 bd 2a a2 45 bd c9 ab 4b 3b 5c ae cb bd
       -0.05586725 -0.048250355 0.0031077734 -0.09945366
000160 b4 3b 41 bd e6 1d a7 bd 6d 66 0c bd c3 83 63 bd
       -0.047176078 -0.081599995 -0.03427737 -0.05554558
000170 6f 26 c5 bc 48 a5 a2 bd 92 4b 21 bd b6 44 bd bd
       -0.024066178 -0.07941681 -0.03937871 -0.09241621
000180 84 e3 db bc f5 e6 47 ba be 73 03 bd bd 88 9f bd
       -0.026841886 -0.0007625663 -0.032092802 -0.07789753
000190 1c 60 8c bd 79 27 b2 bc 42 f1 11 bd 47 76 c3 bd
       -0.06854269 -0.021747338 -0.035630472 -0.09544044
0001a0 87 2c f6 3b f9 3d 96 bd 42 61 7b bc ae d9 4b bd
       0.0075126323 -0.07336039 -0.015343012 -0.049768142
0001b0 a2 4e 0c be 27 69 49 bc 68 6f c7 3c ac d2 6e bd
       -0.13701871 -0.012293137 0.024345115 -0.05830638
0001c0 8f 0e 8f bc 51 f9 e0 bd f4 7d d0 bc fc 25 24 bc
       -0.017462997 -0.10985053 -0.025450684 -0.010018822
0001d0 73 40 88 bd 23 85 db bd 6a 4e 8c bd 10 67 b3 bd
       -0.06652918 -0.10718753 -0.06850894 -0.08759892
0001e0 47 3e 8b bd 80 20 5f bd d6 b0 0b bd c1 a5 5f 3b
       -0.06798988 -0.054474354 -0.03410419 0.0034125897
0001f0 70 71 58 3b c6 51 c0 bd 50 23 11 3d 97 92 c6 bb
       0.0033026598 -0.09390597 0.035434067 -0.0060599553

classifier.3.weight f4 [1, 128]
000000 fc e9 d4 bc 51 b8 1b bd f1 5d 16 bb 80 7e 61 3d
       -0.025990479 -0.038017575 -0.0022944177 0.05505228
000010 17 b6 a1 bc c9 ff 7e 3c 1e 39 72 3d b6 63 ca bc
       -0.019740148 0.015563914 0.059136502 -0.024705749
000020 ee e8 37 bd da 36 a1 3c 02 37 9a bc e1 45 91 bd
       -0.044899873 0.019679476 -0.018825058 -0.070934065
000030 13 d2 58 3d 4e 46 62 bc 50 4f 6b bd 8b 88 c7 3c
       0.052934717 -0.013810707 -0.057448685 0.024357101
000040 25 81 35 bd 99 f9 94 bd 21 5d 1f 3d a6 30 80 bd
       -0.044312615 -0.072741695 0.038907174 -0.06259279
000050 57 6f 0c 3d b7 12 cf 3a be e0 0c bd 24 9e 83 bd
       0.03428587 0.0015798424 -0.03439402 -0.06426647
000060 8c a8 28 3d 78 7b 23 bd ff c2 a5 bd ba 62 4e bd
       0.041176364 -0.03991267 -0.08093833 -0.05038712
000070 8b 85 04 3d 98 8b d9 bb 0a 78 b3 3c 8b cc c1 3d
       0.03235392 -0.0066389553 0.021907825 0.094628416
000080 18 11 fb 3c ac 15 5b bd 7a 6e 58 3d c8 a5 2d 3d
       0.0306478 -0.053487465 0.052839734 0.04239443
000090 b0 08 72 3d eb 23 7e bc db cd 4a bb a5 32 c0 3b
       0.059090316 -0.015511493 -0.0030945453 0.0058654123
0000a0 0f 3d c0 bc 67 7c 18 3d ff 88 ac 3d 8c 68 76 bd
       -0.023466615 0.037228014 0.084245674 -0.060158297
0000b0 e5 c8 f4 3b 96 1f 8b 3d a9 51 0a bd 98 4b a1 bd
       0.0074702376 0.06793134 -0.033769283 -0.078757465
0000c0 14 72 0e bd ce 39 d4 bc a5 0c 8d 3d 16 39 af bd
       -0.034776762 -0.02590647 0.068871774 -0.0855581
0000d0 ab e3 b6 bc 56 18 7e 3c f7 34 d3 39 f4 3b 74 bd
       -0.022325357 0.015508732 0.00040284518 -0.05962749
0000e0 28 09 af 3d 96 98 52 3d 3d 28 b5 3d 78 d0 33 bd
       0.08546668 0.05141505 0.088455655 -0.043899983
0000f0 07 d3 da 3c 09 7b 4c 3d fd 0a ac bc 5d 78 02 bd
       0.026711954 0.049922023 -0.021001333 -0.03185307
000100 df 4b 32 3d fa e5 38 3d b0 03 1a bd 19 af dd bc
       0.043529388 0.045141198 -0.037601173 -0.027061032
000110 09 e4 dc 3d 05 aa 73 3d 30 c5 87 bd 81 21 7c 3c
       0.10785682 0.059488315 -0.066294074 0.015388847
000120 98 3b 00 bd de 3b e0 bd 5b 0a 94 3c 9a 03 95 3d
       -0.031306833 -0.10948919 0.018071344 0.072760776
000130 65 b2 19 3c fd 91 81 3d c4 ad 50 bd b3 9e fd 3c
       0.0093809115 0.06326673 -0.050946966 0.030959463
000140 5b e2 7e bd 82 ad 68 bc 78 3d aa 3c d4 19 e6 bb
       -0.06222759 -0.014201524 0.020781264 -0.007022122
000150 30 34 98 3d e9 f6 82 bd 0d 6a 64 3d d0 bf 8c bc
       0.07431829 -0.063947506 0.0557652 -0.017181307
000160 3b 9f 3a 3c 6f 12 ac bd 24 c0 54 bd 2b 00 84 3c
       0.011390503 -0.084019534 -0.051941052 0.016113361
000170 c2 98 16 3d 1b 07 c6 3c 5d 98 a1 3d 13 12 f6 bc
       0.036766775 0.02417331 0.07890389 -0.030037915
000180 28 39 ba 3c 31 32 21 bd d2 9c 65 3d 92 bc 82 bd
       0.022732332 -0.039354507 0.05605776 -0.06383623
000190 e0 09 ef 3c e4 75 90 3c 19 a4 89 bd 08 2a 86 bd
       0.029179513 0.01763434 -0.06720752 -0.065509856
0001a0 5c e9 5e bb 32 96 84 bd ad 9c 85 3d d5 df 87 3c
       -0.0034013605 -0.0647396 0.06524024 0.016586224
0001b0 36 97 03 bd a3 9a 2e bd 81 81 3c 3d 89 62 30 bd
       -0.032126628 -0.04262794 0.046021942 -0.04306272
0001c0 75 eb 71 3d e0 0e a0 bd 31 d9 0f bd a4 3c 36 bc
       0.05906244 -0.07815337 -0.03511924 -0.011122856
0001d0 dc 73 b1 3c 9c 6c 31 3d 11 60 cd 3d 90 07 11 3d
       0.021661691 0.04331647 0.10028089 0.035407603
0001e0 2b d5 10 bd 43 a7 8a bc cc 48 e2 bc 3a 00 5a 3d
       -0.035359543 -0.01692546 -0.027622603 0.053222872
0001f0 e3 6f 7c bd de 9f c3 bd 89 64 52 bd 22 86 bd 3b
       -0.06163014 -0.095519766 -0.05136541 0.005783812
